models/model_weights.pth (torch, 124534 bytes, 15 tensors)

linear.weight f4 [128, 10]
-0.04392357 0.02764131 0.020650385 0.021463264 0.057884783 0.008232225 -0.0045866445 -0.063822635
-0.00539053 -0.0048204046 0.0010149546 -0.00077188393 -0.017403813 6.676225e-05 0.018688839 0.016397871
0.0024972747 0.0032199095 -0.0001159288 0.0015336468 -0.119314216 0.014908239 -0.035511255 -0.09393491
-0.021280933 -0.04310027 0.0064139343 0.08700097 -0.035901964 -0.11318904 -2.6296508 0.584176
-0.5027509 1.777865 0.88364744 -0.6936902 -0.11527379 -2.0714965 -0.43324658 0.1598392
-0.0010571183 0.0001400005 0.0040045567 0.004671453 -0.00049047795 -0.0004897127 -0.00047614318 -8.280729e-07
0.00040205393 -3.57988e-05 -0.00017664957 1.24660755e-05 -1.3033293e-05 -5.2313844e-06 2.7141948e-06 1.0096937e-06
3.7914313e-06 1.9302063e-06 -1.5390666e-06 -1.8174098e-06 0.0001633066 -0.0011525044 1.5730986e-05 0.00196851
0.0017924058 -0.0022764257 0.00076167134 -0.00028442967 0.0010488587 -0.0011827003 0.002227854 -0.0014029795
-0.010025304 -0.0029934156 -0.0020367121 0.00037003797 -0.00052073976 0.008578343 0.017047368 0.009093875
0.52743065 -1.334391 1.278698 0.26453534 0.8483223 0.023104535 2.0937827 2.0648868
0.36479184 1.8748271 0.019004213 -0.01940191 -0.037728712 -0.007598786 0.12224991 0.07337122
0.0065763076 0.00398848 0.036560588 0.08223396 0.00066112133 -0.0007540068 0.00065517484 6.0868115e-05
-0.0007918801 9.2665025e-05 0.00018104738 0.0022778467 -0.0014732934 -0.00074213895 -1.1868348 -0.05394262
-0.44884318 0.89419055 0.80024946 -0.5411953 0.018794894 -0.34421742 -0.56975967 -0.51871264
0.012031862 -0.0095378375 -0.00071330706 -0.03866483 -0.012178709 -0.014311144 -0.13618268 -0.0523011
0.05987081 0.05890546 0.00015316051 -0.0004045176 -2.668998e-09 -0.0014584668 -6.262719e-05 -0.000117914315
-0.0006473039 -0.0012423451 -0.0012798453 -0.0014222936 -0.03514168 0.016347216 0.037382696 0.036725137
0.014442177 -0.0074591837 -0.011673479 -0.022003757 -0.00957616 -0.0349152 0.0017044686 0.004059481
0.001544297 -0.00573312 -7.766475e-05 -0.0025895515 0.0011952757 -0.002017578 0.0031589766 0.0013840052
-0.039545618 0.042333145 -0.16468671 -0.41944975 0.031494904 -0.11689543 -0.61675745 -0.23271708
0.43067336 0.23084289 -2.215567 0.9462835 -0.4619121 2.2203224 0.3807402 0.0042551574
0.23965202 -1.9504958 -0.20618705 0.17620978 0.30434388 0.602305 0.6040974 0.88417184
1.1728442 -0.9400867 -1.1235708 -0.71662253 -0.80837405 0.10967048 -0.07977217 -0.08737554
0.022960473 0.30262196 0.06866816 0.1725267 -0.4743699 -0.848767 0.038423095 0.16041388
0.025949735 -0.28509292 0.605845 0.0401374 -0.27778625 -0.09398758 0.64379966 0.51602983
0.8018529 -0.022955459 0.004281997 0.0008807836 0.0029334545 0.0036084813 0.0010048663 0.0048290156
-0.0065585277 -0.0001448729 -0.0018371772 -7.025819e-05 0.02411384 -0.034655243 0.011857784 0.030116128
0.0063431743 0.02993403 0.02735041 0.029770091 0.041525494 0.0022884302 0.012027776 -0.0075486545
-0.018060539 -0.019261202 -0.020204462 -0.037599154 0.0004299756 0.0073484024 0.01624208 0.017415153
0.9636404 0.115483314 0.8890813 0.31577998 -0.88024193 1.1250511 -0.13704596 -0.007169485
-0.1347182 0.08028516 0.20329276 0.2909752 -1.6843807 -0.61002666 0.06021716 -0.2692099
00000000: 34e9 33bd 0770 e23c ff2a a93c bad3 af3c
00000010: 9818 6d3d 74e0 063c 904b 96bb 71b5 82bd
00000020: 0ba3 b0bb 7cf4 9dbb 3a08 853a 4158 4aba
00000030: 7192 8ebc b602 8c38 5619 993c d454 863c
00000040: 51a9 233b 1e05 533b cd1e f3b8 a604 c93a
00000050: 035b f4bd b041 743c 4074 11bd f260 c0bd
00000060: 5a55 aebc e989 30bd fb2b d23b 912d b23d
00000070: f00d 13bd a8cf e7bd 334c 28c0 8f8c 153f
00000080: 48b4 00bf 1591 e33f b836 623f ae95 31bf
00000090: aa14 ecbd 6693 04c0 7fd2 ddbe e3ac 233e
000000a0: 018f 8aba 19cd 1239 a838 833b fd12 993b
000000b0: 6b93 00ba 1060 00ba dba2 f9b9 bd48 5eb5
000000c0: c4ca d239 ab26 16b8 023b 39b9 6325 5137
000000d0: 91a9 5ab7 4089 afb6 8325 3636 d084 8735
000000e0: 4b70 7e36 b188 0136 ed91 ceb5 baed f3b5
000000f0: 483d 2b39 a10f 97ba 09f6 8337 1e02 013b
00000100: 29ef ea3a 1630 15bb e6aa 473a 811f 95b9
00000110: dc79 893a d604 9bba 3001 123b 2ee4 b7ba
00000120: 2c41 24bc 2e2d 44bb 5c7a 05bb a801 c239
00000130: 4182 08ba 2e8c 0c3c eca6 8b3c 7afe 143c
00000140: b205 073f 53cd aabf 60ac a33f 2d71 873e
00000150: a62b 593f b945 bd3c 8900 0640 1b27 0440
00000160: ffc5 ba3e 56fa ef3f b9ae 9b3c c1f0 9ebc
00000170: 6c89 1abd 3dff f8bb 295e fa3d a643 963d
00000180: 117e d73b ccb1 823b 8ec0 153d 476a a83d
00000190: 1a4f 2d3a 8aa8 45ba 0ac0 2b3a a44c 7f38
000001a0: 2d96 4fba 2855 c238 89d7 3d39 ed47 153b
000001b0: 861b c1ba 1a8c 42ba 34ea 97bf f0f2 5cbd
000001c0: c6ce e5be ace9 643f 26dd 4c3f c68b 0abf
000001d0: c0f7 993c 443d b0be c5db 11bf 5aca 04bf
000001e0: 4921 453c 9744 1cbc 3afd 3aba 035f 1ebd
000001f0: 3589 47bc 4a79 6abc 7973 0bbe ae39 56bd
00000200: 183b 753d da46 713d b699 2039 6f15 d4b9
00000210: 8269 37b1 062a bfba b756 83b8 c448 f7b8
00000220: d4af 29ba 2fd6 a2ba 7bc0 a7ba 416c baba
00000230: b9f0 0fbd 99ea 853c 991e 193d 196d 163d
00000240: e19e 6c3c 2b6c f4bb 1f42 3fbc 3941 b4bc
00000250: 54e5 1cbc 3e03 0fbd 7a68 df3a 6505 853b
00000260: 026a ca3a e5dc bbbb f2df a2b8 77b5 29bb
00000270: ccaa 9c3a 5839 04bb d506 4f3b 8267 b53a
00000280: 96fa 21bd 8565 2d3d a2a3 28be 1ec2 d6be
00000290: cd00 013d df66 efbd d1e3 1dbf 634d 6ebe
000002a0: 3881 dc3e 1462 6c3e dacb 0dc0 a33f 723f
000002b0: be7f ecbe c319 0e40 61f0 c23e d96e 8b3b
000002c0: 5767 753e d9a9 f9bf b322 53be 5670 343e
000002d0: f6d2 9b3e a930 1a3f 21a6 1a3f 1659 623f
000002e0: c21f 963f 86a9 70bf 2bd1 8fbf 9374 37bf
000002f0: 9af1 4ebf eb9a e03d 975f a3bd f2f1 b2bd
00000300: 9a17 bc3c 44f1 9a3e e4a1 8c3d d7aa 303e
00000310: 9de0 f2be cb48 59bf 8961 1d3d 8943 243e
00000320: 8a94 d43c b3f7 91be a818 1b3f 1d67 243d
00000330: 003a 8ebe 8f7c c0bd 0ed0 243f 881a 043f
00000340: 3b46 4d3f 160d bcbc ff4f 8c3b 63e4 663a
00000350: 333f 403b 457c 6c3b b8b5 833a b83c 9e3b
00000360: ebe8 d6bb 06e9 17b9 70cd f0ba 9457 93b8
00000370: 638a c53c a8f2 0dbd 2747 423c 19b6 f63c
00000380: 67da cf3b 3638 f53c f80d e03c 68e0 f33c
00000390: a316 2a3d 7df9 153b 2610 453c b45a f7bb
000003a0: b2f3 93bc abc9 9dbc d483 a5bc 9201 1abd
000003b0: 596e e139 deca f03b 1c0e 853c 39aa 8e3c
000003c0: 23b1 763f 8482 ec3d d59a 633f eaad a13e
000003d0: 8957 61bf ad01 903f c755 0cbe 00ee eabb
000003e0: 91f3 09be 8c6c a43d fa2b 503e b4fa 943e
000003f0: c999 d7bf b52a 1cbf 45a6 763d e1d5 89be

linear.bias f4 [128]
0.0037429105 -0.0036172236 0.007178684 -0.5794475 -0.0050572646 -0.00017608427 -0.0006453598 0.0020813209
-1.0726589 -0.02881436 -0.0007239261 -0.31278095 -0.0019513714 -0.0001838982 -0.0017767573 0.0044420003
-0.014119283 -0.93897283 -0.58319837 -0.011049793 -0.3165104 0.004120297 -0.008394148 0.012865198
-0.962575 -0.2494956 0.000756034 -0.100720964 0.00035193723 -0.00040013538 -0.6760799 0.0027393675
0.002568302 -0.035681684 0.002160282 -0.96461564 -0.041075088 0.006709437 -0.0653703 -0.006601865
0.0076653506 -0.002772606 -0.0012845274 -0.04906705 -0.001989322 -0.0011149686 -5.7574387e-05 -0.06792491
-0.031201903 -0.034380823 -0.0036566602 -0.5632819 0.011960824 0.008508484 -0.27384347 -0.017355714
-0.00602289 0.0033323315 -0.20635816 -0.018999921 -0.0021761009 0.022421857 0.0002971253 -0.25690317
-0.11314388 -0.3313638 -0.016561959 -0.001803872 -0.9619869 -0.034313597 -0.0032066847 -0.0030912615
0.0027552848 -0.93098843 0.006238227 0.023577007 -0.0043944004 -0.0031743404 -0.0010578188 -0.009521404
0.0013901073 -0.37196636 0.0046089236 0.005535296 -0.000517355 -0.06938507 0.0038596147 0.0014494336
-0.04103664 -0.17232573 -0.1094058 -0.0894993 -0.0004906586 -0.41944936 0.00048711727 -0.01442836
0.003168972 -0.24142563 -0.0037488898 -0.021742454 0.0018503245 -5.8509664e-05 -0.0060209814 -0.010923681
-0.02077986 0.22333838 -0.0022864912 -0.0014104332 -0.01785694 -0.010679533 -0.07081864 0.022949906
0.0014258794 0.0028788904 0.0070805284 -4.8314603e-05 -0.5843763 0.0020921417 -0.008180489 0.005451034
0.009040115 -0.6980803 0.0037329295 -0.3676748 -0.006801966 0.0006127642 -0.0018950247 -0.0012958166
00000000: 9e4b 753b f10e 6dbb 2b3b eb3b ac56 14bf
00000010: 69b7 a5bb 43a3 38b9 5d2d 29ba c566 083b
00000020: e34c 89bf 180c ecbc dcc5 3dba d324 a0be
00000030: 29c5 ffba ccd4 40b9 15e2 e8ba 338e 913b
00000040: 9154 67bc 8660 70bf 7d4c 15bf 310a 35bc
00000050: a70d a2be 8e03 873b 9c87 09bc 8dc8 523c
00000060: 516b 76bf c67b 7fbe 9530 463a cb46 cebd
00000070: 3784 b839 43c9 d1b9 9313 2dbf f686 333b
00000080: f550 283b f526 12bd 8593 0d3b 0df1 76bf
00000090: 5a3e 28bd d6da db3b dde0 85bd 7554 d8bb
000000a0: 9f2d fb3b 9cb4 35bb 965d a8ba 88fa 48bd
000000b0: 495f 02bb 2324 92ba 077c 71b8 371c 8bbd
000000c0: 229b ffbc e8d2 0cbd 94a4 6fbb 3e33 10bf
000000d0: 55f7 433c 2b67 0b3c 3635 8cbe 922d 8ebc
000000e0: aa5b c5bb 3f63 5a3b 8e4f 53be b9a5 9bbc
000000f0: ea9c 0ebb 0bae b73c 7cc7 9b39 d088 83be
00000100: fbb7 e7bd 84a8 a9be f2ac 87bc e66f ecba
00000110: c644 76bf 6a8c 0cbd 3e27 52bb c396 4abb
00000120: 0292 343b 4255 6ebf 0a6a cc3b 9124 c13c
00000130: e7fe 8fbb 9808 50bb 82a6 8aba aaff 1bbc
00000140: 4334 b63a 6072 bebe 7406 973b 6e61 b53b
00000150: 1b9f 07ba c219 8ebd 97f1 7c3b ecfa bd3a
00000160: 0916 28bd 2876 30be 2610 e0bd 694b b7bd
00000170: 8b9f 00ba 11c2 d6be c663 ff39 ee64 6cbc
00000180: 87ae 4f3b 4838 77be efaf 75bb 3b1d b2bc
00000190: 9686 f23a 4668 75b8 a74b c5bb 3df9 32bc
000001a0: 863a aabc d1b2 643e f5d8 15bb 49de b8ba
000001b0: b848 92bc 35f9 2ebc 5d09 91bd 7101 bc3c
000001c0: 93e4 ba3a c4ab 3c3b c703 e83b 69a5 4ab8
000001d0: af99 15bf 501c 093b 7507 06bc 969e b23b
000001e0: fe1c 143c 64b5 32bf 2aa4 743b df3f bcbe
000001f0: 07e3 debb e9a1 203a 7a62 f8ba 64d8 a9ba

linear2.weight f4 [64, 128]
0.02966207 0.001365117 -0.0072108167 -0.041624863 -0.0003526731 -1.2757565e-07 5.922051e-05 -0.006611453
0.34315026 0.016761702 0.0002143178 -0.3370085 -0.009782763 5.2825602e-05 0.030592509 -0.0021297226
-0.25249788 0.2130258 0.09472012 -0.23263058 -0.04252853 0.0013835398 0.026852665 -0.022661902
0.29437402 0.16771215 0.0037869369 0.045931287 -0.040175006 7.518344e-07 0.011147611 0.0023790763
0.011128209 -0.20616536 0.0007742318 0.041091386 0.014002321 -0.042999055 -0.22446941 0.058668695
-0.008086168 0.0017981395 0.0066412743 -0.5665789 -0.08363147 -0.0048403535 1.6798309e-07 -0.08499919
-0.25852787 0.057799306 -0.0063593406 0.70692056 -0.056403536 0.0062542115 -0.26452595 -0.061663114
-0.0057706344 -0.013728113 -0.08750035 -0.032390717 0.0058981967 -0.048311528 0.004529859 -0.25561148
0.16102321 0.08347032 0.057746705 0.0023777871 0.088934936 0.00019133546 0.0290823 0.005194548
0.0020287952 -0.008805895 0.0075012418 -0.05597606 0.00026274563 -0.027629456 -8.046463e-09 0.017481385
0.0023941458 0.043155167 0.019555606 -0.022872042 0.00027079147 0.11448435 0.0046420475 0.0020963494
0.08262417 -0.0005120646 -0.011775651 -0.10747868 -7.916187e-05 -0.29540995 0.0070998385 0.021654714
-0.0031136316 0.3652915 -0.002372269 -0.058455758 0.0030371437 0.00039414936 -0.029667908 -4.316841e-09
0.048929144 -0.26296023 -0.0033025953 0.0034063966 0.021422291 0.009585533 0.13356718 -0.056994107
-0.002024113 0.0019094476 0.045232464 1.3878922e-07 0.08775411 0.0033714229 -0.048737846 -0.0005981818
-0.010522048 -0.013648898 0.009769283 0.13549733 0.01489862 -0.006834234 -0.0005547083 0.0154855475
0.0222125 -0.002628598 -0.0154087795 0.0018772976 0.0001722702 7.027121e-06 0.00093221146 -0.010626554
0.046501994 0.03552185 0.00035239093 -0.22098619 -0.01763262 -9.584286e-05 0.026708791 -0.000840718
-0.14238285 0.075876646 0.013772134 -0.08180886 -0.24255288 0.0011761258 0.017308934 -0.017582355
0.26468012 -0.10257179 0.004545721 0.14799832 -0.006020559 1.1967007e-06 -0.123884685 0.0009627466
0.002675949 -0.20993446 -0.00036418973 0.22446057 0.06456107 -0.035030838 -0.19761255 0.050528333
-0.005031236 0.00018267268 0.0001111488 -1.1441386 -0.07729871 -0.0040628165 5.839015e-08 -0.16294476
-0.17316984 0.0774384 -0.0061192736 0.88293064 -0.05677123 0.00816832 -0.46165192 -0.06394529
-0.00041378464 -0.017901225 -0.12823331 -0.041441467 0.0016563497 -0.038829744 0.0033177894 -0.1920048
0.032784734 -0.48979446 0.14018333 0.0019585032 0.12209531 2.9751774e-09 0.017742837 0.0033038538
0.0011759861 0.04646638 0.0041073156 -0.062405333 -0.006527374 -0.02433942 3.864106e-07 0.04147543
0.004087243 0.0020029016 0.023106294 -0.025178991 -7.7628204e-07 0.07174592 0.00059576816 -0.0031783576
0.08774045 0.07080785 0.16800822 0.08535216 2.7829138e-08 -0.60733914 0.004937534 0.020888217
-0.0036786092 0.2043697 -0.0015656443 -0.063208535 0.0028290814 0.0020223048 -0.012931309 5.356372e-08
0.026854178 -0.4668798 -0.0012815098 0.00069405325 -0.024199273 0.0143817095 0.19771063 -0.064837016
-0.00012030078 0.0027339591 0.029496549 1.2987432e-07 0.21179457 0.004813502 -0.050418448 -0.000896826
-0.0071938243 0.44661847 0.016768789 0.18496506 -0.015555634 -0.015137817 -0.0005592739 0.019479498
00000000: dffd f23c baed b23a b748 ecbb d57e 2abd
00000010: fbe6 b8b9 bafb 08b4 8a63 7838 e3a4 d8bb
00000020: 64b1 af3e d64f 893c 7fba 6039 618c acbe
00000030: e247 20bc 0f91 5d38 249d fa3c d192 0bbb
00000040: 6747 81be 6f23 5a3e 9ffc c13d b636 6ebe
00000050: 6532 2ebd e457 b53a 1ffa db3c 74a5 b9bc
00000060: 31b8 963e bcbc 2b3e 422e 783b 7222 3c3d
00000070: 8c8e 24bd abd1 4935 78a4 363c 47ea 1b3b
00000080: 1753 363c 031d 53be d1f5 4a3a 714f 283d
00000090: fe69 653c c71f 30bd 4fdb 65be 964e 703d
000000a0: d97b 04bc 8daf eb3a 0c9f d93b 510b 11bf
000000b0: fa46 abbd d49b 9ebb d75e 3434 0e14 aebd
000000c0: c45d 84be f7be 6c3d 0462 d0bb bff8 343f
000000d0: 6507 67bd 21f0 cc3b f26f 87be 7692 7cbd
000000e0: 9717 bdbb e1eb 60bc 6233 b3bd 21ac 04bd
000000f0: a945 c13b 4fe2 45bd 366f 943b 82df 82be
00000100: 45e3 243e 7df2 aa3d cf87 6c3d a6d4 1b3b
00000110: 8523 b63d 39a1 4839 013e ee3c 0737 aa3b
00000120: 89f5 043b 9a46 10bc facc f53b 2747 65bd
00000130: 1fc1 8939 2b57 e2bc b83c 0ab2 1f35 8f3c
00000140: 1ae7 1c3b 79c3 303d 1433 a03c 265e bbbc
00000150: 04f9 8d39 c576 ea3d 511c 983b e862 093b
00000160: dc36 a93d 133c 06ba a9ee 40bc c81d dcbd
00000170: b503 a6b8 f93f 97be c3a5 e83b 3a65 b13c
00000180: 120e 4cbb 7d07 bb3e 1278 1bbb 4e6f 6fbd
00000190: d10a 473b d5a5 ce39 1d0a f3bc 5653 94b1
000001a0: ed69 483d b9a2 86be 5b70 58bb da3d 5f3b
000001b0: cd7d af3c a40c 1d3c d6c5 083e a772 69bd
000001c0: fba6 04bb 6e46 fa3a ad45 393d 1706 1534
000001d0: 6db8 b33d 17f3 5c3b 56a1 47bd 4dcf 1cba
000001e0: ab64 2cbc a19f 5fbc 580f 203c d0bf 0a3e
000001f0: 5719 743c b6f1 dfbb d869 11ba 18b7 7d3c
00000200: fdf6 b53c 8e44 2cbb 1b75 7cbc a80f f63a
00000210: 6ea3 3439 82ca eb36 a75f 743a ff1a 2ebc
00000220: e078 3e3d 5c7f 113d 1cc1 b839 344a 62be
00000230: 4972 90bc 3eff c8b8 65cc da3c a163 5cba
00000240: cfcc 11be 3765 9b3d 84a4 613c 678b a7bd
00000250: c85f 78be 3c28 9a3a 77cb 8d3c df08 90bc
00000260: 2784 873e 2911 d2bd 46f4 943b df8c 173e
00000270: 1c48 c5bb 539e a035 41b7 fdbd d560 7c3a
00000280: f95e 2f3b 0ff9 56be b8f0 beb9 fed8 653e
00000290: 9838 843d 7f7c 0fbd f25a 4abe ccf6 4e3d
000002a0: 11dd a4bb d38b 3f39 8f18 e938 2273 92bf
000002b0: c94e 9ebd 6021 85bb a6c8 7a33 feda 26be
000002c0: 6f53 31be 0698 9e3d 3084 c8bb be07 623f
000002d0: f388 68bd 6bd4 053c a45d ecbe c0f5 82bd
000002e0: 3cf1 d8b9 97a5 92bc 984f 03be 87be 29bd
000002f0: e019 d93a f00b 1fbd 456f 593b e89c 44be
00000300: 4949 063d 57c6 fabe 388c 0f3e 3b5a 003b
00000310: 1b0d fa3d e073 4c31 6d59 913c 7885 583b
00000320: 8c23 9a3a 8853 3e3d a996 863b bc9c 7fbd
00000330: 95e3 d5bb 7763 c7bc de73 cf34 24e2 293d
00000340: 48ee 853b 1d43 033b 6949 bd3c 2c44 cebc
00000350: b261 50b5 86ef 923d 532d 1c3a fe4b 50bb
00000360: 44b1 b33d b503 913d 590a 2c3e 1dcd ae3d
00000370: ec0c ef32 947a 1bbf 0acb a13b c41d ab3c
00000380: d214 71bb 4a46 513e 4e36 cdba 7a73 81bd
00000390: 1c68 393b a588 043b d7dd 53bc ef0d 6633
000003a0: 4bfd db3c df0a efbe 55f8 a7ba 20f1 353a
000003b0: 8e3d c6bc 43a1 6b3c a874 4a3e 45c9 84bd
000003c0: fd49 fcb8 392c 333b bfa2 f13c 9573 0b34
000003d0: ade0 583e 95ba 9d3b 9383 4ebd f918 6bba
000003e0: 2cba ebbb 2dab e43e b35e 893c 7b67 3d3e
000003f0: 0fdd 7ebc 9b04 78bc 3c9c 12ba 7893 9f3c

linear2.bias f4 [64]
6.1187005 6.2221675 6.2785597 5.767467 4.917489 4.3539267 5.3962364 6.096595
5.9769034 6.055037 3.2256963 4.847293 6.15748 6.1111794 6.0337973 6.203369
4.545255 6.0719595 6.0814567 5.968875 5.3690386 6.0182343 6.1591167 6.1078086
6.0436654 5.923224 3.897081 4.4935474 5.8366714 4.256824 5.8375125 5.982476
6.0072494 5.9346805 5.8176117 5.988507 6.2035336 5.963757 6.2180834 3.78122
5.212946 5.1590447 5.2949734 6.0438843 6.1294775 5.999298 6.1742735 5.6466165
6.151441 6.2324333 4.978759 5.778732 3.1337001 6.0240917 6.158922 5.779354
5.6506143 6.156603 5.2911124 5.5598583 6.118371 6.0192657 4.631491 6.067045
00000000: 65cc c340 ff1b c740 f6e9 c840 178f b840
00000010: 125c 9d40 5e53 8b40 f8ad ac40 4e17 c340
00000020: cb42 bf40 ddc2 c140 cf71 4e40 061d 9b40
00000030: 130a c540 c88e c340 de14 c140 0082 c640
00000040: bb72 9140 7e4d c240 4b9b c240 0601 bf40
00000050: 2acf ab40 6095 c040 7c17 c540 2b73 c340
00000060: b565 c140 0d8b bd40 c669 7940 24cb 8f40
00000070: 03c6 ba40 e737 8840 e7cc ba40 7270 bf40
00000080: 633b c040 e7e8 bd40 e029 ba40 d9a1 bf40
00000090: 5983 c640 19d7 be40 8afa c640 82ff 7140
000000a0: 74d0 a640 e516 a540 6c70 a940 8067 c140
000000b0: ae24 c440 40fa bf40 a693 c540 15b1 b440
000000c0: 9bd8 c440 1870 c740 fe51 9f40 5feb b840
000000d0: 8b8e 4840 5cc5 c040 e415 c540 78f0 b840
000000e0: d5d1 b440 e402 c540 cb50 a940 5cea b140
000000f0: b2c9 c340 d39d c040 2d35 9440 3c25 c240

linear3.weight f4 [1, 64]
1.1331438 1.1080027 1.1091506 1.196939 1.4002788 1.5881481 1.2952415 1.1462597
1.1632757 1.1412327 2.1398113 1.43074 1.1409324 1.1347467 1.1545104 1.1250112
1.5253435 1.1465434 1.1423528 1.1486518 1.2801585 1.1472085 1.1162305 1.1315324
1.1537558 1.1701386 1.7669364 1.5560354 1.1760463 1.5987796 1.1917859 1.1602805
1.1399689 1.1542814 1.162366 1.1506757 1.1086069 1.1699959 1.1034058 1.8273252
1.3239857 1.3358521 1.3012975 1.1409034 1.1310061 1.1642473 1.1137134 1.2203873
1.1411476 1.1155765 1.3805468 1.1914146 2.2125082 1.1531457 1.1253649 1.1942607
1.2218479 1.1175308 1.3048081 1.2584381 1.1391865 1.1366395 1.4624017 1.1390569
00000000: db0a 913f 08d3 8d3f a6f8 8d3f 4c35 993f
00000010: 563c b33f 7048 cb3f 79ca a53f a3b8 923f
00000020: 38e6 943f ea13 923f abf2 0840 7d22 b73f
00000030: 130a 923f 613f 913f ffc6 933f 5e00 903f
00000040: 753e c33f efc1 923f 9e38 923f 0607 933f
00000050: 3cdc a33f bad7 923f a4e0 8e3f 0ed6 903f
00000060: 45ae 933f 1ac7 953f f92a e23f 2b2c c73f
00000070: af88 963f cfa4 cc3f 718c 983f 1284 943f
00000080: 80ea 913f 7ebf 933f 69c8 943f 5749 933f
00000090: d5e6 8d3f 6dc2 953f 673c 8d3f cbe5 e93f
000000a0: 5d78 a93f 34fd aa3f eb90 a63f 1f09 923f
000000b0: cfc4 903f 0e06 953f 298e 8e3f a735 9c3f
000000c0: 2011 923f 36cb 8e3f c2b5 b03f 4680 983f
000000d0: bc99 0d40 479a 933f f50b 903f 89dd 983f
000000e0: 8365 9c3f 400b 8f3f f403 a73f 8014 a13f
000000f0: ddd0 913f 677d 913f fb2f bb3f 9ecc 913f

exp_avg f4 [128, 10]
0.09504735 -0.13831063 0.09163685 0.002014892 -0.0032375434 3.5638375e-05 0.07468013 -1.6183696e-05
-0.00014211464 -1.04453e-06 0.00072080106 0.0034931668 -3.1407077e-07 0.0013752903 0.0028487148 0.0023367964
1.6500594e-07 1.7223415e-07 -1.4119139e-07 1.5536854e-07 -1.3331752e-06 0.13120995 -4.951449e-07 -0.0019726977
0.00056186004 -8.581851e-07 2.0417353e-07 1.0100414e-06 0.00031729022 -8.7472506e-07 -2.6436539e-05 -1.1257869
-5.1675406e-06 0.07886707 0.11104562 0.09076325 -1.2927702e-06 -0.00015687227 -0.0006549489 -4.114773e-05
8.221531e-06 -1.3840389e-07 8.11977e-06 1.7084441e-05 -1.449377e-07 -1.4493102e-07 -1.4479849e-07 -2.730987e-08
1.4307011e-07 -1.4039084e-07 -1.4182635e-07 2.6894057e-08 -2.689572e-08 1.9737323e-08 2.211197e-08 -3.5284828e-08
-2.169101e-08 -2.6266322e-08 -2.4958952e-08 2.6267305e-08 -3.8713195e-05 -1.5155692e-07 8.795033e-06 1.7635693e-05
-4.7351874e-05 -1.6279701e-07 1.4765138e-07 -1.4287733e-07 1.4936896e-07 -1.5186197e-07 -0.012169311 0.012951306
0.000100370766 -3.388599e-05 7.727709e-05 -5.4183285e-05 -1.4450292e-07 2.1567712e-06 0.00011432531 2.850433e-05
-0.01973962 -0.00028397382 0.0023670804 0.0065811197 -0.023169436 -6.679223e-07 2.0948719e-05 2.0484635e-05
-1.5703483e-06 1.4050601e-05 -0.0019422979 0.028185366 -9.757256e-07 0.010197887 0.016118303 0.015767582
2.0579365e-07 1.7990642e-07 -2.4184746e-07 2.0300207e-07 1.5501682e-07 -1.4518125e-07 1.4712374e-07 1.4280755e-07
-1.4795252e-07 1.4096041e-07 1.4226292e-07 1.6472808e-07 -1.547681e-07 -1.474569e-07 -1.200838e-05 -0.25693434
-4.628464e-06 -0.101398155 -0.17843299 -0.14646599 3.279806e-07 -3.5822056e-06 -5.8376286e-06 -5.3271583e-06
-0.15521619 3.391169e-05 0.00024368387 -0.001669855 -2.7723966e-06 -6.9415255e-06 -1.5018621e-06 -6.6303784e-07
0.0006663567 -0.0009844768 1.4156363e-07 -1.4407738e-07 -2.4911685e-08 -1.5462173e-07 -1.4066121e-07 -1.4121518e-07
-1.46517e-07 -1.5247318e-07 -1.5283953e-07 -1.5426366e-07 0.058468938 0.012373444 0.05493831 0.0059199617
0.007607735 0.005899105 0.044992834 -3.6747207e-07 -0.0004421841 2.406776e-06 -0.03984573 -0.0012179313
-0.01333277 -0.0015412068 -0.0017884265 -0.0014594806 -0.01023139 1.4427806e-06 0.00011826075 -0.00016486656
0.00046221586 1.5513787 0.00044943357 2.340906e-05 0.0039767493 -1.7181201e-06 -6.3076122e-06 -2.4672024e-06
0.0025459405 7.482863e-06 -2.2295702e-05 -2.28438 -4.759153e-06 0.059723955 0.08573758 0.07056844
2.5365518e-06 -0.00013250069 -0.00054127583 -3.2175467e-05 0.25266787 0.19437991 0.23890363 0.03409646
0.03283909 0.03295411 0.19133143 -7.3434794e-06 -0.0009908037 0.0057592117 -0.07902033 -0.16980799
-0.011785478 -0.07735602 -0.12701483 -0.0985536 -4.883753e-06 -8.6276505e-06 -0.0030305372 -0.013542337
-0.0033640116 -0.012787685 -0.0039657475 0.0052873376 -2.917894e-06 -1.0799074e-06 6.1134488e-06 4.993236e-06
-0.0047400747 -2.412534e-06 0.026123485 -0.0077183046 0.0076796883 0.000920975 0.0013425291 0.0011056187
0.006230323 1.8811576e-07 -8.2179744e-05 0.00010096893 0.13942266 -0.00040838995 0.00021518936 0.00030703633
0.000103798666 0.001879566 1.0606875e-06 3.1557283e-06 -1.575614e-05 -0.0002339608 -0.05598073 0.16066815
0.0033037462 -0.0016213168 0.0010923179 -5.0676726e-07 0.00059178856 6.0143175e-06 8.012397e-05 -0.0007553102
1.4169998 -0.004408894 0.0037084622 0.0036786785 0.0063787773 0.006796707 5.7090697e-06 2.9939596e-05
-0.00018408363 -0.0026587485 -0.5310916 -0.32179585 -0.5163251 -3.2536005e-05 0.021517813 -4.824673e-06
00000000: 2fa8 c23d 4da1 0dbe 1aac bb3d 470c 043b
00000010: f72c 54bb 6a7a 1538 e5f1 983d 39c2 87b7
00000020: 9c04 15b9 c731 8cb5 24f4 3c3a 9ded 643b
00000030: 8f9d a8b4 1643 b43a 81b1 3a3b f024 193b
00000040: 7d2c 3134 5def 3834 659a 17b4 61d3 2634
00000050: 8def b2b5 e75b 063e 19ea 04b5 6048 01bb
00000060: ca49 133a 085e 66b5 cb3a 5b34 c290 8735
00000070: f959 a639 a6ce 6ab5 09c4 ddb7 c919 90bf
00000080: d664 adb6 0f85 a13d e36b e33d 15e2 b93d
00000090: 3f83 adb5 147e 24b9 e0b0 2bba 0a96 2cb8
000000a0: 35ef 0937 2c9c 14b4 263a 0837 8f50 8f37
000000b0: 2ca0 1bb4 569e 1bb4 e879 1bb4 0a97 eab2
000000c0: d09e 1934 57be 16b4 ee48 18b4 a804 e732
000000d0: 5008 e7b2 d58a a932 bcf0 bd32 148c 17b3
000000e0: 0953 bab2 41a0 e1b2 5165 d6b2 6aa2 e132
000000f0: fa5f 22b8 a6bb 22b4 618e 1337 5df0 9337
00000100: b09b 46b8 4dcd 2eb4 1a8a 1e34 d269 19b4
00000110: 3a62 2034 800f 23b4 ca61 47bc b731 543c
00000120: 257e d238 ce20 0eb8 d20f a238 dc42 63b8
00000130: a928 1bb4 0cbd 1036 efc1 ef38 951c ef37
00000140: fcb4 a1bc 52e2 94b9 0521 1b3b 6fa6 d73b
00000150: d4cd bdbc 454b 33b5 08bb af37 6bd6 ab37
00000160: c2c4 d2b5 dfba 6b37 b494 feba ffe4 e63c
00000170: adf5 82b5 0a15 273c 880a 843c 042b 813c
00000180: 21f8 5c34 4d2c 4134 43d7 81b4 c9f8 5934
00000190: b372 2634 1ee3 1bb4 11f9 1d34 a456 1934
000001a0: e1dc 1eb4 e75a 1734 efc0 1834 1ce0 3034
000001b0: 552e 26b4 a554 1eb4 9977 49b7 e68c 83be
000001c0: 344e 9bb6 d6a9 cfbd 23b7 36be 2efb 15be
000001d0: 4f15 b034 d365 70b6 d9e0 c3b6 f1bf b2b6
000001e0: fef0 1ebe 663c 0e38 6485 7f39 09df daba
000001f0: 690d 3ab6 40eb e8b6 9793 c9b5 9dfb 31b5
00000200: 71ae 2e3a 8f09 81ba b700 1834 b0b3 1ab4
00000210: 60fd d5b2 1906 26b4 a908 17b4 efa0 17b4
00000220: 4952 1db4 82b7 23b4 361c 24b4 aca3 25b4
00000230: 207d 6f3d fcb9 4a3c fe06 613d 3dfc c13b
00000240: 4f4a f93b 484d c13b 684a 383d fa48 c5b4
00000250: f2d4 e7b9 1984 2136 4735 23bd fea2 9fba
00000260: b171 5abc 5202 caba a369 eaba 0b4c bfba
00000270: 8fa1 27bc 90a5 c135 c202 f838 08e0 2cb9
00000280: 9055 f239 9493 c63f f4a1 eb39 935e c437
00000290: 644f 823b 289a e6b5 faa5 d3b6 3792 25b6
000002a0: cbd9 263b 4e15 fb36 a807 bbb7 4833 12c0
000002b0: d0b0 9fb6 1ba1 743d 2f97 af3d 3086 903d
000002c0: a139 2a36 e2ef 0ab9 68e4 0dba 25f4 06b8
000002d0: af5d 813e 870b 473e 27a3 743e bba8 0b3d
000002e0: 4882 063d e4fa 063d 63ec 433e 0268 f6b6
000002f0: dbdd 81ba c5b7 bc3b 69d5 a1bd 25e2 2dbe
00000300: e117 41bc d56c 9ebd 2d10 02be 78d6 c9bd
00000310: 1edf a3b6 7abf 10b7 fa9b 46bb aee0 5dbc
00000320: c076 5cbb 7083 51bc 1af3 81bb 6741 ad3b
00000330: 0ad1 43b6 56f1 90b5 2022 cd36 928b a736
00000340: a152 9bbb 05e7 21b6 eb00 d63c d5e9 fcbb
00000350: e5a5 fb3b 966d 713a cdf7 af3a 68ea 903a
00000360: bd27 cc3b defc 4934 ea57 acb8 48bf d338
00000370: d0c4 0e3e 2c1d d6b9 74a4 6139 b8f9 a039
00000380: 7cae d938 c55b f63a f25c 8e35 00c7 5336
00000390: 0e2c 84b7 6053 75b9 0d4c 65bd 3186 243e
000003a0: aa83 583b 5d82 d4ba 1b2c 8f3a c808 08b5
000003b0: 4222 1b3a 98ce c936 3b08 a838 0200 46ba
000003c0: 4060 b53f 7c78 90bb ac09 733b fc15 713b
000003d0: 1005 d13b e9b6 de3b 8990 bf36 cb26 fb37
000003e0: 9306 41b9 663e 2ebb 9ef5 07bf 6dc2 a4be
000003f0: e22d 04bf 4577 08b8 2046 b03c a0e3 a1b6

exp_avg_sq f4 [128, 10]
0.011571188 0.5477449 0.008443902 0.0065607466 0.005189569 0.0050765295 0.0012239036 6.297293e-05
0.0019178932 0.0019823497 0.00056197407 0.00039355006 3.7588297e-06 1.260019e-05 0.0002561964 0.00023948117
2.4476572e-08 5.6411253e-09 2.239955e-07 3.0097365e-07 2.6734897e-06 0.36003903 8.091772e-07 8.624363e-05
0.00048096318 0.0001013894 1.455361e-08 2.4703357e-05 0.00010397027 1.683881e-05 0.009252242 36.521843
0.009174715 0.17464024 0.13750437 0.12604713 2.7281236e-05 0.00096110004 0.01789772 0.049806364
1.8094728e-07 3.5738903e-08 9.5250954e-08 5.196662e-07 2.7469394e-08 9.113361e-09 1.5396209e-09 2.94232e-12
1.5493868e-08 3.0367406e-08 5.4907412e-11 1.9237851e-14 1.7499321e-14 1.779153e-14 3.7134924e-14 3.2401694e-14
1.7466353e-14 1.7469221e-14 1.802618e-14 1.8959694e-14 2.726886e-06 6.8959775e-07 2.7987875e-07 7.0243215e-07
5.7638846e-07 4.792614e-08 5.3429203e-09 2.415504e-08 9.951107e-09 4.5826596e-09 0.0032482576 0.0031307824
1.0472046e-05 2.3984996e-05 2.9790923e-05 3.4603534e-05 4.730554e-07 3.0040478e-06 1.38544065e-05 1.6749267e-05
0.8423883 0.09050877 0.17251623 0.18387985 0.20439297 0.011879587 0.0060331905 0.034149885
0.078211896 0.100011475 0.048674468 0.033229116 0.0010935295 0.0023896636 0.015411859 0.014703684
4.7593426e-06 5.8990998e-05 0.00384008 0.006141929 1.4995651e-06 1.0657894e-07 2.0408844e-08 1.7351988e-08
1.1312128e-08 9.767058e-09 1.7956521e-09 3.8449306e-09 4.2331374e-09 3.1728737e-09 0.016947625 0.10957365
0.01746056 0.36153758 0.038703643 0.024639364 8.090546e-05 0.00023644815 0.0007445874 0.00021078115
0.30210334 0.0052975044 0.0006502648 0.0005520198 2.9920988e-05 0.0001618436 2.497204e-07 8.518565e-06
0.0011736371 0.0011816568 3.0940265e-07 1.4245678e-07 2.8644553e-09 1.7918443e-09 3.9678607e-09 2.2485818e-09
3.094136e-10 1.5551485e-10 5.742687e-10 6.3429867e-10 0.0028383061 0.17872801 0.0030507236 0.00226849
0.0005733136 0.0013493242 0.00040874758 3.615351e-05 0.00041206932 0.00015208429 0.008588998 0.008612551
0.00014777276 9.75941e-05 0.00010822247 0.00010222744 2.172527e-05 1.0585458e-05 3.8615395e-05 4.4885168e-05
0.22833557 14.545398 0.023740519 0.016305134 0.019979963 0.004496341 7.966953e-06 8.729556e-05
0.07297717 0.06523085 0.016941195 30.688883 0.015224821 0.20065986 0.11688681 0.23478025
8.431277e-05 0.00048752807 0.023143021 0.0503958 0.15242189 4.8615193 0.067151465 0.07218483
0.0508803 0.023819476 0.0060435697 0.0022965276 0.008206476 0.014430136 1.2950913 1.0485997
0.3870321 0.5225858 0.3133986 0.46169823 0.0011501767 0.0002157124 0.13341786 0.18646444
0.11801558 0.11369222 0.16337326 0.08056249 0.002576455 0.0030872968 0.006791427 0.006692537
0.04406829 0.033365197 0.006862329 0.0067198975 0.00012217237 0.00011803152 9.418888e-05 8.954041e-05
1.2889631e-05 9.177107e-06 3.508739e-05 4.1199495e-05 0.3608774 0.0034037333 0.003863911 0.0051532127
0.0033489733 0.0014700398 6.362502e-05 0.00040938528 0.0007129018 0.0011600824 0.11615341 0.1131238
0.0008440954 0.00077725534 0.00049449503 7.926485e-05 0.00015746227 0.00012949207 0.0005756284 0.00073356763
44.68783 0.9698211 0.41582373 0.51944834 0.06940395 0.2704612 0.016561318 0.059605617
0.052602246 0.12222227 0.38223428 22.931917 0.07503079 0.037482895 0.105961055 0.005756808
00000000: 1595 3d3c 0339 0c3f 4b58 0a3c 88fb d63b
00000010: 430d aa3b 0459 a63b 646b a03a 5610 8438
00000020: d161 fb3a 4fea 013b 7151 133a 6555 ce39
00000030: 3440 7c36 6765 5337 1952 8639 3d1d 7b39
00000040: 8d40 d232 ddd3 c131 6a83 7034 8195 a134
00000050: 346a 3336 0957 b83e 3c36 5935 b2dd b438
00000060: c929 fc39 05a1 d438 7407 7a32 0e3a cf37
00000070: 9d0a da38 1241 8d37 b796 173c 5e16 1242
00000080: 8b51 163c e4d4 323e f2cd 0c3e 8012 013e
00000090: 02da e437 55f2 7b3a 3d9e 923c c201 4c3d
000000a0: 694a 4234 577f 1933 c48c cc33 307f 0b35
000000b0: d6f5 eb32 fc90 1c32 989a d330 200c 4f2c
000000c0: 6017 8532 516d 0233 407c 712e 7747 ad28
000000d0: b09e 9d28 7a40 a028 a73d 2729 9cec 1129
000000e0: ab52 9d28 4859 9d28 8b5d a228 14c6 aa28
000000f0: 8bff 3636 cc1c 3935 3e42 9634 c58e 3c35
00000100: 1db9 1a35 59d7 4d33 d394 b731 7f7d cf32
00000110: 6ef5 2a32 8075 9d31 b8e0 543b d02d 4d3b
00000120: 18b1 2f37 6333 c937 85e7 f937 4323 1138
00000130: 3df8 fd34 2699 4936 3970 6837 c780 8c37
00000140: c2a6 573f a95c b93d 18a8 303e 004b 3c3e
00000150: 644c 513e 99a2 423c 12b2 c53b c0e0 0b3d
00000160: 8f2d a03d d1d2 cc3d e15e 473d 411b 083d
00000170: c354 8f3a e79b 1c3b 0682 7c3c b8e7 703c
00000180: 71b2 9f36 1a6d 7738 daa9 7b3b 3c42 c93b
00000190: aa44 c935 64e0 e433 864f af32 6d0d 9532
000001a0: 4457 4232 facb 2732 e4ca f630 5e1c 8431
000001b0: 1273 9131 c909 5a31 bfd5 8a3c 2668 e03d
000001c0: 7309 8f3c 741b b93e b687 1e3d 7ed8 c93c
000001d0: caab a938 11ef 7739 6a30 433a 2205 5d39
000001e0: 4aad 9a3e b096 ad3b 8876 2a3a 6cb5 103a
000001f0: d5fe fa37 90b4 2939 4f11 8634 f5ea 0e37
00000200: bad4 993a d3e1 9a3a fa1b a634 39f6 1834
00000210: 08d8 4431 eb44 f630 ac55 8831 7885 1a31
00000220: 181a aa2f 8afd 2a2f 91da 1d30 cd5a 2e30
00000230: e002 3a3b 7a04 373e a6ee 473b f2aa 143b
00000240: 6d4a 163a cfdb b03a 2c4d d639 89a3 1738
00000250: 020b d839 d178 1f39 deb8 0c3c a81b 0d3c
00000260: 73f3 1a39 6fab cc38 7ff5 e238 f062 d638
00000270: a93e b637 3298 3137 f7f6 2138 1543 3c38
00000280: cdd0 693e f3b9 6841 7a7b c23c 5892 853c
00000290: 05ad a33c 0b56 933b cda9 0537 7212 b738
000002a0: 0e75 953d c097 853d 43c8 8a3c d582 f541
000002b0: 8771 793c c779 4d3e 5a62 ef3d 3c6a 703e
000002c0: 13d1 b038 e99a ff39 6f96 bd3c d46b 4e3d
000002d0: 7c14 1c3e 9191 9b40 b586 893d a4d5 933d
000002e0: dd67 503d 1021 c33c 2309 c63b 5781 163b
000002f0: 7574 063c 616c 6c3c 8dc5 a53f 8438 863f
00000300: 1229 c63e 2fc8 053f c875 a03e b663 ec3e
00000310: 87c1 963a db30 6239 b19e 083e 89f0 3e3e
00000320: 27b2 f13d 77d7 e83d 524b 273e f2fd a43d
00000330: bed9 283b 3f54 4a3b 9e8a de3b 124d db3b
00000340: f480 343d f2a9 083d 63dd e03b 9632 dc3b
00000350: 651b 0039 b187 f738 4587 c538 a4c7 bb38
00000360: 8b40 5837 60f7 1937 cc2a 1338 9fcd 2c38
00000370: ecc4 b83e 2b11 5f3b ab39 7d3b 48dc a83b
00000380: 737a 5b3b 5aae c03a 6c6e 8538 c3a2 d639
00000390: 08e2 3a3a e80d 983a d7e1 ed3d 73ad e73d
000003a0: 4946 5d3a b9c0 4b3a 00a1 013a fe3a a638
000003b0: 751c 2539 43c8 0739 c5e5 163a e44c 403a
000003c0: 57c0 3242 3246 783f d9e6 d43e 91fa 043f
000003d0: a823 8e3d e479 8a3e 9aab 873c 0525 743d
000003e0: 7475 573d ab4f fa3d 36b4 c33e 9174 b741
000003f0: bea9 993d aa87 193d 1c02 d93d 9ba3 bc3b

exp_avg f4 [128]
-0.13868177 0.005716266 0.12897182 -1.0385946 1.6281227e-05 -1.4182069e-07 -3.0180183e-05 0.0005564321
-0.017388673 0.037385847 -1.3822579e-07 -0.36773264 -0.15500315 -1.4187096e-07 0.018800335 -0.028210446
1.5514114 -2.2186978 0.22353491 -0.29846066 -0.0077213934 0.01111835 0.13963605 0.100380205
1.4207333 -0.30545756 0.0014482727 0.21684223 -0.002928989 -1.4405376e-07 -0.27357605 0.033886116
0.02731872 1.5055097 0.0022162714 0.16342784 0.12931687 0.13939051 -0.025295092 0.0642877
-0.020891856 -0.0001792742 0.003943826 2.4533794 -0.88814706 0.024142604 -1.406178e-07 0.042561438
0.030152382 0.10810431 0.0076355594 0.004746553 0.14436081 0.062224306 -0.78086054 -0.5805691
-8.32404e-06 0.14934985 0.001651802 -5.667285e-05 0.059041943 -0.1071581 -0.011999677 2.214104
0.00035431935 0.01938323 -0.85690653 -1.3237008e-05 0.9116684 -4.8318276e-07 -0.17626403 0.08107261
0.0003329776 0.22155604 0.045034215 -0.1254855 -1.7894768e-06 -0.42712462 -1.5062699e-07 0.5280387
0.12940171 0.012593046 -0.07600809 -0.37099078 -1.4520674e-07 0.24792095 0.068129055 0.060702745
0.1048903 0.12764046 0.28695884 0.05549297 -1.449392e-07 -1.1801218 0.026696503 0.7979803
-0.019916175 -0.0018870122 -0.0002744326 -8.70761e-05 0.012169091 -0.00068646437 0.34624198 -2.4927306e-07
0.38058805 0.011173732 0.010232669 0.026108507 -0.022523971 5.7186577e-07 0.054087497 -0.3800135
0.015988411 -0.010134481 0.014971762 -1.405187e-07 0.046426564 0.046640854 -0.0016853256 -0.010914858
-0.051728632 -2.10379 0.014694078 0.59572613 0.002928547 -0.07622239 0.0010938332 -0.02873035
00000000: 9802 0ebe 844f bb3b 3011 043e abf0 84bf
00000010: ab93 8837 6047 18b4 732b fdb7 87dd 113a
00000020: b172 8ebc e721 193d 376b 14b4 7447 bcbe
00000030: 25b9 1ebe 3155 18b4 2903 9a3c 9819 e7bc
00000040: a694 c63f 25ff 0dc0 56e6 643e d6cf 98be
00000050: be03 fdbb bd29 363c c1fc 0e3e 2394 cd3d
00000060: 97da b53f ef64 9cbe f8d3 bd3a e40b 5e3e
00000070: 48f4 3fbb 32ad 1ab4 2912 8cbe 2bcc 0a3d
00000080: 82cb df3c 8bb4 c03f dd3e 113b a159 273e
00000090: a46b 043e 63bc 0e3e a737 cfbc 45a9 833d
000000a0: 6625 abbc 8dfb 3bb9 363b 813b 2b04 1d40
000000b0: 9b5d 63bf b6c6 c53c bafc 16b4 e754 2e3d
000000c0: 2102 f73c cb65 dd3d b733 fa3b f988 9b3b
000000d0: 52d3 133e eade 7e3d 7ae6 47bf 2da0 14bf
000000e0: 7ba7 0bb7 2bef 183e 4781 d83a 02b4 6db8
000000f0: f7d5 713d b575 dbbd 4b9a 44bc e1b3 0d40
00000100: f0c3 b939 94c9 9e3c 3a5e 5bbf 8414 5eb7
00000110: 1a63 693f 11b4 01b5 8f7e 34be 6609 a63d
00000120: 7f93 ae39 96df 623e cc75 383d 457f 00be
00000130: f42d f0b5 14b0 dabe 08bc 21b4 8b2d 073f
00000140: e281 043e 1053 4e3c 21aa 9bbd 81f2 bdbe
00000150: 20ea 1bb4 fdde 7d3e 3f87 8b3d 71a3 783d
00000160: bad0 d63d 2eb4 023e 45ec 923e 994c 633d
00000170: 95a0 1bb4 3b0e 97bf a0b2 da3c 7048 4c3f
00000180: 3f27 a3bc 9f55 f7ba b8e1 8fb9 a09c b6b8
00000190: de60 473c d8f3 33ba a146 b13e d4d3 85b4
000001a0: 70dc c23e 0712 373c eda6 273c 82e1 d53c
000001b0: 3184 b8bc 5182 1935 da8a 5d3d 2191 c2be
000001c0: 21fa 823c 180b 26bc 1f4c 753c 7ce1 16b4
000001d0: c829 3e3d 7b0a 3f3d 25e6 dcba 3cd4 32bc
000001e0: 67e1 53bd 7fa4 06c0 6ebf 703c 8281 183f
000001f0: deec 3f3b 7c1a 9cbd f45e 8f3a e95b ebbc

exp_avg_sq f4 [128]
0.57442266 0.0009702926 0.36123824 37.199196 7.197027e-07 5.4908786e-11 4.478412e-06 0.00650535
1.272691 0.08689775 1.6497572e-06 0.6954143 0.31133145 4.646958e-07 0.18661684 0.01775245
14.85581 31.317728 5.164083 3.5044472 0.44550124 0.014156899 0.37463722 0.23565954
46.738552 23.37107 0.007534691 3.22128 0.06119324 1.0469343e-10 8.281175 0.016646737
0.010879487 25.698996 0.0025505705 5.642114 1.7837862 2.173278 1.643431 2.0113964
0.01044806 0.000620785 0.012525753 181.11072 13.909655 0.011071853 3.9562043e-10 2.872143
3.4482296 5.65198 0.002073507 6.5600133 7.335867 0.097707875 28.23944 0.075896114
7.2713706e-06 0.8724486 0.27839756 0.004791206 0.029099122 2.905373 0.002845 35.50176
0.056902096 0.58814687 8.0482435 7.6639835e-06 0.9169687 2.3888784e-09 0.2814712 0.1349597
0.004055206 16.515726 0.06325985 3.934533 5.5535293e-06 0.10140677 1.6827095e-10 5.1972847
0.113113604 0.5175229 0.236539 1.2161998 1.929634e-08 2.914737 0.046318617 0.013974855
6.470078 3.0946307 3.2309148 17.157932 5.1245724e-08 47.35796 0.02547752 4.084493
0.012438963 1.773359 0.0033413381 0.015162341 0.0033774548 0.0019836468 0.7777336 6.7580372e-09
3.2877305 1.0332353 0.00019468216 0.006343053 2.243302 0.0019957994 7.99235 2.0583265
0.008338391 0.014368145 0.87816256 2.8329645e-09 1.3603963 0.032725666 0.07548814 0.0120184235
0.0956735 70.046776 0.09842021 17.752853 0.012914496 0.02968869 0.0010883497 0.07551474
00000000: 5d0d 133f 3c5b 7e3a 38f4 b83e facb 1442
00000010: 9831 4135 cc7d 712e 4445 9636 d52a d53b
00000020: 8ae7 a23f 73f7 b13d 3a6d dd35 ac06 323f
00000030: d666 9f3e 4e7b f934 7c18 3f3e 966d 913c
00000040: 66b1 6d41 b58a fa41 2b40 a540 dd48 6040
00000050: bd18 e43e 57f2 673c 73d0 bf3e bc50 713e
00000060: 47f4 3a42 f4f7 ba41 92e5 f63b 7429 4e40
00000070: c3a5 7a3d 2939 e62e b17f 0441 bd5e 883c
00000080: e03f 323c 8b97 cd41 7927 273b 338c b440
00000090: 1b53 e43f fd16 0b40 f25b d23f b8ba 0040
000000a0: 572e 2b3c 2dbc 223a d138 4d3c 581c 3543
000000b0: f28d 5e41 b866 353c a07e d92f 31d1 3740
000000c0: cbaf 5c40 05dd b440 ade3 073b a1eb d140
000000d0: 6cbf ea40 111b c83d 60ea e141 6c6f 9b3d
000000e0: 99fc f336 cb58 5f3f 208a 8e3e 8dff 9c3b
000000f0: 4861 ee3c a2f1 3940 2e73 3a3b cd01 0e42
00000100: 2c12 693d cb90 163f 9bc5 0041 8f94 0037
00000110: 76be 6a3f 9829 2431 fe1c 903e e032 0a3e
00000120: 89e1 843b 3520 8441 618e 813d 64cf 7b40
00000130: 7458 ba36 5aae cf3d 1004 392f 2850 a640
00000140: 1ba8 e73d 617c 043f 4837 723e 6fac 9b3f
00000150: 1ac1 a532 0d8b 3a40 97b8 3d3d caf6 643c
00000160: e10a cf40 6e0e 4640 4fc7 4e40 7243 8941
00000170: 4519 5c33 8d6e 3d42 3bb6 d03c 2bb4 8240
00000180: cbcc 4b3c 6dfd e23f 5afa 5a3b 786b 783c
00000190: 4a58 5d3b 1200 023b 8d19 473f 5334 e831
000001a0: 2d6a 5240 0e41 843f 9823 4c39 63d9 cf3b
000001b0: 4392 0f40 f5cb 023b 55c1 ff40 9fbb 0340
000001c0: bf9d 083c 5e68 6b3c 43cf 603f 0aae 4231
000001d0: 7721 ae3f 590b 063d 8799 9a3d ece8 443c
000001e0: 78f0 c33d f317 8c42 8990 c93d d805 8e41
000001f0: 5297 533c b235 f33c f5a6 8e3a 79a7 9a3d

exp_avg f4 [64, 128]
-0.0024220208 4.1681433e-05 -0.002145377 0.0009558923 8.279542e-07 -1.9506414e-08 -6.191907e-07 0.00028884603
-0.0005994282 -0.00016369957 1.4444781e-07 -2.7703012e-05 0.0009865416 1.4056533e-07 0.00085653504 0.0013924334
-0.0029680466 -5.109771e-05 0.0058404934 0.0003602735 4.7777645e-05 0.0011701139 0.0013536988 0.0004365321
0.00025843453 0.10450358 -0.00012299641 0.018605957 8.992266e-05 -3.2224083e-08 -0.00090629025 0.0013282591
0.0018045971 -0.001648259 0.0013975648 0.0065813703 -0.0002623462 -0.0026287222 -1.6085902e-05 0.00034149282
0.0029695863 -1.0609858e-05 0.0009540455 -9.9050405e-05 0.0067254896 0.00059618976 2.5115202e-08 3.473874e-05
0.00010462931 -0.002160902 0.0004485551 1.023535e-05 0.002696907 0.0028436135 0.09179241 0.006850487
-1.9172568e-07 -0.0028070968 0.000545762 1.4239879e-08 0.0049997033 0.0031441092 -0.00017424309 -0.0038869749
2.3830611e-05 1.1592041e-06 -0.0024666167 5.306472e-07 0.014818028 1.4198818e-07 -0.0016062174 0.00034917874
0.0007755049 0.008913755 0.0018111608 0.0013644918 4.9934397e-07 0.00071515987 -2.4710038e-08 0.00928574
0.0022484427 0.0016329706 -0.0019109144 0.008400511 1.4278893e-07 0.020634914 0.00381209 0.0017596185
0.002497384 0.019438408 0.0076966146 -0.00049558654 -1.4085096e-07 0.08626062 0.0011354081 0.0012768512
0.0008035404 1.4947449e-05 5.4749413e-05 9.886762e-08 0.0006684304 0.0005827247 -0.00050633133 1.2230235e-08
0.00082320784 -1.3099016e-05 0.0009172783 0.000840621 5.289129e-06 2.3647749e-07 0.01693022 0.0052077686
0.0012309813 -0.00022813515 -0.0040275934 -2.6382475e-08 8.7074346e-05 0.00075111014 9.952635e-06 0.0015459188
0.0013535015 -0.0009506894 0.001689795 0.0022318019 -1.5337189e-06 0.0008992627 0.00036202476 -2.2771237e-05
-0.003528388 0.0002425242 -0.0022202597 0.0073552667 1.0917287e-06 2.6883322e-08 1.0920635e-06 0.00036079442
6.314146e-05 0.00076710124 1.4634703e-07 0.0011668381 0.0011893869 -1.4099567e-07 -0.0003249253 0.0009256727
-0.005618433 0.0072420416 0.007071137 0.0022192227 -1.5223224e-05 0.0014264978 0.0018381751 0.0012430942
0.00016062795 0.10026702 -0.00061454886 0.019935166 8.0760816e-05 1.086499e-08 0.002895796 0.0012707856
0.0015973569 -0.0050265943 0.0011635135 0.0026320224 0.0018587016 -0.0034732136 0.000187362 -0.001155304
0.0021202292 0.00028560622 0.000926198 -0.0011075343 0.0056666923 0.00070394244 1.9576724e-08 -6.598407e-05
2.8455783e-05 -0.0045085666 0.00051335624 1.1928218e-05 0.0027948483 0.0019600536 0.086251475 0.006698448
-5.691831e-07 -0.0031355356 0.001323027 -8.68795e-08 0.003994329 0.0021658929 -0.00022910723 -0.0069109583
2.205763e-05 -0.00026412 -0.004541439 1.70399e-07 0.011064479 2.5061434e-08 -0.001850975 0.0008084893
7.4393065e-05 0.0043170354 0.0018148358 -0.0038026343 -5.0673924e-07 0.0007046834 -3.837453e-09 0.0062958347
0.0025026775 0.001264547 -0.0016164687 0.008056832 -8.1706936e-08 0.017197134 0.003761256 0.0018610092
0.0009898003 0.023277076 0.01007613 -0.0045630015 2.4846866e-08 0.08505372 0.00021458158 0.0012319529
0.0008538527 -3.73319e-06 0.00012426544 3.30663e-08 0.00030531705 0.0004622687 -0.000758583 -3.837541e-09
0.0010420501 -1.4908879e-05 0.00082680164 0.0006912284 -2.473595e-05 2.840944e-07 0.0131388055 0.007932528
0.0013392834 -0.00019600373 -0.0033871336 -2.6377725e-08 2.511188e-05 0.0011992916 8.679879e-06 0.0010030925
0.0009605105 -0.0010067681 0.00052786054 -0.0027296566 -2.2107544e-05 0.0010040617 0.00028686266 -0.00031720233
00000000: c4ba 1ebb 19d3 2e38 7499 0cbb d994 7a3a
00000010: 9440 5e35 0f8f a7b2 7636 26b5 4270 9739
00000020: f222 1dba c5a6 2bb9 8319 1b34 c463 e8b7
00000030: d84e 813a 4eee 1634 1889 603a 5082 b63a
00000040: 8f83 42bb c051 56b8 9c61 bf3b 17e3 bc39
00000050: db64 4838 825e 993a 986e b13a 59de e439
00000060: 7f7e 8739 f905 d63d 99f8 00b9 856b 983c
00000070: dc94 bc38 c166 0ab3 1c94 6dba fb18 ae3a
00000080: 3b88 ec3a 650a d8ba 7e2e b73a 89a8 d73b
00000090: 838b 89b9 a446 2cbb 36f0 86b7 640a b339
000000a0: 649d 423b fe00 32b7 e918 7a3a 48b9 cfb8
000000b0: 7f61 dc3b 9e49 1c3a eabc d732 70b4 1138
000000c0: 6f6c db38 eb9d 0dbb 0c2c eb39 7eb8 2b37
000000d0: 97be 303b eb5b 3a3b a9fd bb3d 0d7a e03b
000000e0: 27dd 4db4 45f7 37bb 7811 0f3a a6a3 7432
000000f0: 8dd4 a33b 660d 4e3b 06b5 36b9 9ebc 7ebb
00000100: d9e7 c737 f395 9b35 f6a6 21bb cc71 0e35
00000110: 50c7 723c 6a75 1834 b687 d2ba fa11 b739
00000120: 414b 4b3a 000b 123c 7964 ed3a bfd8 b23a
00000130: a80a 0635 9179 3b3a f341 d4b2 3723 183c
00000140: 9c5a 133b 6709 d63a a677 faba 4ca2 093c
00000150: 8651 1934 8d0a a93c 42d4 793b 00a3 e63a
00000160: 27ab 233b 4c3d 9f3c e233 fc3b 40ea 01ba
00000170: d13c 17b4 68a9 b03d f9d1 943a 045c a73a
00000180: afa4 523a cec6 7a37 bca2 6538 0d51 d433
00000190: 9b39 2f3a fec1 183a 52bb 04ba 241d 5232
000001a0: 8bcc 573a d8c3 5bb7 8175 703a 1f5d 5c3a
000001b0: 4679 b136 70ea 7d34 3fb1 8a3c eea5 aa3b
000001c0: e158 a13a 9037 6fb9 e7f9 83bb ad9f e2b2
000001d0: af9b b638 26e6 443a 3efa 2637 6da0 ca3a
000001e0: f967 b13a b037 79ba 1d7c dd3a 6c43 123b
000001f0: 2eda cdb5 80bc 6b3a 24ce bd39 dc04 bfb7
00000200: 873c 67bb 184e 7e39 c781 11bb 7304 f13b
00000210: 8387 9235 0ded e632 0493 9235 0229 bd39
00000220: d06a 8438 4b17 493a 9123 1d34 97f0 983a
00000230: 34e5 9b3a 9864 17b4 bc5a aab9 d8a8 723a
00000240: d51a b8bb a64e ed3b ffb4 e73b 6170 113b
00000250: 4067 7fb7 53f9 ba3a ecee f03a 52ef a23a
00000260: 3d6e 2839 cc58 cd3d ad19 21ba 134f a33c
00000270: 225e a938 bba8 3a32 65c7 3d3b 7d90 a63a
00000280: 675e d13a 21b6 a4bb 0981 983a 027e 2c3b
00000290: ad9f f33a db9e 63bb 9b76 4439 926d 97ba
000002a0: 8bf3 0a3b 6bbd 9539 18cc 723a af2a 91ba
000002b0: a9af b93b c788 383a ac29 a832 ee60 8ab8
000002c0: 54b4 ee37 99bc 93bb c192 063a 4e1f 4837
000002d0: c629 373b 3e74 003b 9da4 b03d a87e db3b
000002e0: f7c9 18b5 8f7d 4dbb 6b69 ad3a 8392 bab3
000002f0: dce2 823b a7f1 0d3b 813c 70b9 5275 e2bb
00000300: 6608 b937 9679 8ab9 5ad0 94bb ecf6 3634
00000310: ca47 353c ad46 d732 6a9c f2ba ccf0 533a
00000320: 7903 9c38 eb75 8d3b c9df ed3a 9e35 79bb
00000330: db06 08b5 81ba 383a 98da 83b1 4a4d ce3b
00000340: f603 243b 28bf a53a b0df d3ba cd00 043c
00000350: dd76 afb3 01e1 8c3c 687f 763b 1bed f33a
00000360: 30bc 813a 91af be3c 5a16 253c 3b85 95bb
00000370: d66e d532 a530 ae3d 4e01 6139 7b79 a13a
00000380: 16d5 5f3a b787 7ab6 404d 0239 c804 0e33
00000390: f612 a039 a85c f239 a5db 46ba 5edb 83b1
000003a0: 6695 883a 2621 7ab7 b8bd 583a 8d33 353a
000003b0: 0c80 cfb7 a385 9834 2544 573c 6ff7 013c
000003c0: e58a af3a 5a86 4db9 acfa 5dbb 3b95 e2b2
000003d0: 5aa7 d237 8c31 9d3a cc9f 1137 337a 833a
000003e0: c5ca 7b3a 88f5 83ba 1f60 0a3a 0ae4 32bb
000003f0: 9773 b9b7 b89a 833a 0e66 9639 2d4e a6b9
