models/model_weights.pth (torch, 130678 bytes, 15 tensors)

linear.weight f4 [128, 14]
0.6392192 0.14113885 0.055640195 0.03795595 0.09334447 -0.13787709 -0.5347929 -0.36063635
0.048195016 0.16818745 6.290167e-08 1.4014069e-08 -5.808186e-10 -3.2414015e-08 0.33014348 0.27567476
0.17997558 0.21183494 0.31903225 -0.0071670287 -0.5270412 -0.47839174 0.18525738 0.009037707
-1.1495483e-08 -9.818478e-08 -2.0116471e-05 -4.614013e-05 0.6456909 0.30088454 -1.4297363 0.30515024
0.072799705 0.24423756 -0.77444506 -0.64364874 -0.01682658 0.12648228 -3.8049212e-08 -1.0123039e-07
-5.5593016e-05 -5.4766944e-05 0.5298373 0.2959025 0.4140862 0.18654536 0.037389405 -0.04772079
-0.5875158 -0.549446 0.060259175 0.029449293 -3.3769865e-08 -3.8049134e-08 -3.948454e-05 -3.8205562e-05
0.51032466 0.20175603 -0.09237603 0.2548848 -0.20154613 0.10996833 -0.19747855 -0.33082035
0.18024068 0.02219051 -6.6998375e-08 -9.779683e-08 2.0316474e-10 -2.7850201e-05 0.5868621 0.5775752
0.37375546 0.07782133 0.20756269 0.32192773 -0.29929858 -0.24060658 0.10947077 -0.1727013
-1.1341178e-08 -4.474754e-08 -4.2203377e-05 -5.279435e-05 0.44252068 0.3375717 0.0450766 0.12369168
0.032125026 0.06051084 -0.4132803 -0.42244574 -0.12432447 -0.07954835 6.525843e-08 1.5693756e-07
5.5807725e-10 -2.6572816e-05 -0.98769444 -0.113984175 1.1492431 0.63119626 0.17277126 -0.10774076
0.20503084 0.29261318 0.023042543 -0.55134475 1.6620491e-07 -6.525844e-08 -5.731011e-06 -9.807132e-08
0.25227848 0.404773 -1.7289222 0.5418559 0.08499904 -0.015723577 -0.42236665 -0.7885426
0.18299083 -0.045666747 4.4747598e-08 -6.525843e-08 4.8124015e-08 -1.790233e-08 -1.0969542 -0.53432333
1.204742 0.5369349 -0.037716527 0.10314899 0.3306667 0.24312955 0.084337845 -0.51496637
1.5693755e-07 -3.3769894e-08 -6.2894216e-08 -3.3409083e-08 0.22981675 0.4017428 0.37048632 0.29049763
0.19757822 0.04193079 -0.17145216 -0.62430495 0.32980308 -0.12647848 -5.874261e-09 1.8670312e-08
-4.619095e-11 -4.422596e-05 -1.7231283 0.5715935 0.60761034 0.7564566 -0.104950994 0.07850091
-0.072311506 0.43412435 -0.12887454 0.46026796 3.354036e-08 -6.525847e-08 1.3224358e-05 -8.1771404e-08
0.4887502 0.23909523 0.22063752 0.49821332 0.28995338 0.06475196 -0.16793464 -0.22934592
0.012922986 -0.1816077 4.12325e-09 -1.6620491e-07 4.452587e-10 -2.373511e-05 0.24227533 0.29013816
0.08437702 0.5302784 0.05223834 -0.09759452 -0.64596224 -0.3522211 0.028520636 -0.03763121
-1.5345076e-08 -3.3769837e-08 -1.826372e-10 -1.5837864e-05 0.63984317 0.5598258 -0.11031661 0.16572537
-0.07113856 0.19479905 -0.5819256 -0.21089147 -0.21118638 -0.15791236 -4.474754e-08 -6.528412e-08
-1.3132525e-05 1.728214e-08 0.46579164 0.4016694 -1.9916948 0.44312268 -0.004290889 0.06450346
-0.49179628 -0.7298386 0.014469357 0.17540169 -6.525841e-08 2.8599361e-08 -6.933597e-05 -6.549603e-05
0.60937506 0.5467048 0.2624577 -0.012101011 0.104533955 0.17358685 -0.28733626 -0.47848195
-0.23103645 -0.17458837 2.4820526e-08 6.525841e-08 7.209717e-06 -5.652748e-08 0.4976081 0.4260073
-0.067545965 0.3858153 0.20253432 0.074319154 -0.2726854 -0.5400104 -0.14011233 -0.15166405
1.08684794e-07 6.567203e-08 -1.5439393e-05 -2.9828303e-05 0.6287103 0.31123728 0.19288343 0.4655698
00000000: dfa3 233f b486 103e f9e6 633d b377 1b3d
00000010: 632b bf3d a72f 0dbe 30e8 08bf 54a5 b8be
00000020: 2368 453d 5539 2c3e 8f14 8733 87c2 7032
00000030: 7aa7 1fb0 9637 0bb3 9108 a93e 3e25 8d3e
00000040: 854b 383e 42eb 583e 3258 a33e 65d9 eabb
00000050: 2cec 06bf c3ef f4be 1cb4 3d3e e412 143c
00000060: ab7d 45b2 a7d9 d2b3 cbbf a8b7 9686 41b8
00000070: 004c 253f 8a0d 9a3e 9901 b7bf a73c 9c3e
00000080: 0318 953d 6919 7a3e 0842 46bf 2ac6 24bf
00000090: e5d7 89bc 9284 013e 8d6b 23b3 ff63 d9b3
000000a0: 8c2c 69b8 8fb5 65b8 6ba3 073f 8880 973e
000000b0: 1b03 d43e bf05 3f3e a225 193d e076 43bd
000000c0: 6f67 16bf 7ea8 0cbf 53d2 763d a53f f13c
000000d0: 5c0a 11b3 776b 23b3 349c 25b8 e93e 20b8
000000e0: a3a4 023f 2299 4e3e a52f bdbd 4380 823e
000000f0: 1c62 4ebe 1337 e13d d137 4abe 4961 a9be
00000100: 0391 383e dfc8 b53c bfe0 8fb3 6004 d2b3
00000110: ca61 5f2f da9f e9b7 983c 163f f8db 133f
00000120: e05c bf3e ca60 9f3d 508b 543e b6d3 a43e
00000130: aa3d 99be 9261 76be 3632 e03d 9cd8 30be
00000140: 07d7 42b2 7130 40b3 8803 31b8 806f 5db8
00000150: 1292 e23e 33d6 ac3e 3ea2 383d 1052 fd3d
00000160: 8895 033d 37da 773d 7a99 d3be cf4a d8be
00000170: d49d febd 3fea a2bd 3424 8c33 ab82 2834
00000180: 3267 1930 b0e8 deb7 8bd9 7cbf 8970 e9bd
00000190: 661a 933f 1496 213f f3ea 303e 30a7 dcbd
000001a0: 9bf3 513e 65d1 953e b7c3 bc3c ee24 0dbf
000001b0: 0f76 3234 3524 8cb3 024d c0b6 479b d2b3
000001c0: a52a 813e 683e cf3e 534d ddbf 11b7 0a3f
000001d0: fa13 ae3d bbce 80bc 7140 d8be eedd 49bf
000001e0: f361 3b3e 0e0d 3bbd 8130 4033 3424 8cb3
000001f0: eab0 4e33 a4c7 99b2 ff68 8cbf 6ac9 08bf
00000200: fc34 9a3f 9174 093f a57c 1abd c73f d33d
00000210: 254d a93e f4f6 783e 52b9 ac3d d6d4 03bf
00000220: aa82 2834 640a 11b3 7610 87b3 ad7d 0fb3
00000230: 1555 6b3e 3bb1 cd3e 62b0 bd3e 1bbc 943e
00000240: f251 4a3e 9fbf 2b3d 2891 2fbe 73d2 1fbf
00000250: f3db a83e 9383 01be 8cd6 c9b1 7360 a032
00000260: 6326 4bae 437f 39b8 788f dcbf f453 123f
00000270: 5a8c 1b3f 24a7 413f 8cf0 d6bd 16c5 a03d
00000280: 0e18 94bd 8c45 de3e b0f7 03be 3ea8 eb3e
00000290: 040e 1033 3924 8cb3 2fde 5d37 4e9a afb3
000002a0: 773d fa3e 61d5 743e cdee 613e d115 ff3e
000002b0: c574 943e ad9c 843d 0ff7 2bbe a8d9 6abe
000002c0: efba 533c 5ef7 39be 7eac 8d31 0f76 32b4
000002d0: 97c8 f42f c31a c7b7 0617 783e fd8c 943e
000002e0: dccd ac3d 53c0 073f dff7 553d a3df c7bd
000002f0: c85d 25bf 5356 b4be 1ca4 e93c 2f23 1abd
00000300: 2ed0 83b2 540a 11b3 cdcf 48af 8edb 84b7
00000310: c3cc 233f be50 0f3f aded e1bd e9b3 293e
00000320: 18b1 91bd 6779 473e 13f9 14bf eff3 57be
00000330: 3e41 58be c7b3 21be 7130 40b3 5332 8cb3
00000340: c453 5cb7 d473 9432 3e7c ee3e 9da7 cd3e
00000350: dbef febf fae0 e23e 969a 8cbb 641a 843d
00000360: b9cc fbbe b4d6 3abf e210 6d3c 809c 333e
00000370: 3124 8cb3 a9aa f532 7768 91b8 ea5a 89b8
00000380: 0100 1c3f d9f4 0b3f db60 863e 5243 46bc
00000390: e615 d63d c0c0 313e bd1d 93be 96fb f4be
000003a0: d294 6cbe 4bc7 32be ea34 d532 3124 8c33
000003b0: ffea f136 9fc8 72b3 7dc6 fe3e a11d da3e
000003c0: 8a55 8abd 9589 c53e 2865 4f3e a434 983d
000003d0: 6c9d 8bbe 1f3e 0abf 9b79 0fbe d24d 1bbe
000003e0: 1966 e933 9507 8d33 d883 81b7 cb37 fab7
000003f0: 29f3 203f 7e5a 9f3e 3c83 453e 2a5f ee3e

linear.bias f4 [128]
0.1769879 0.43219236 -4.0500574e-05 0.38618302 0.28639907 0.11283161 0.074693754 0.0023304566
0.014206484 -1.8071692e-05 0.41682515 -4.882464e-06 0.19767258 0.25519347 0.25530446 -6.3055646e-05
-6.7504693e-06 0.23003931 0.36004868 0.20405504 0.1133516 0.19605963 0.20698045 0.25628722
-5.9619513e-05 0.00017772446 0.4351862 -0.0005858811 -0.000520662 0.09203219 0.11046645 0.1156639
0.11661689 0.1277464 0.29332262 -6.7265464e-06 0.23518999 0.0072064768 0.36381757 0.1704323
6.637421e-05 7.711627e-06 0.36610022 0.33995107 0.06187527 0.32997313 -0.009315499 3.852835e-05
0.12119047 0.27579543 -0.00010154554 0.2379447 0.20772675 0.27932835 0.22113366 0.043986693
-6.9339953e-06 0.110406175 0.16024664 -1.8244411e-05 0.18296947 0.36325702 0.015631476 0.6102674
0.04821568 0.08706551 0.17648149 0.25328395 0.18810527 0.3447925 0.0498784 -0.0008843148
0.08124841 0.35007742 0.2985236 0.0165135 0.3265727 0.30072236 0.26970768 0.2396587
0.06269153 0.34958628 -1.043173e-05 0.054845165 0.22847855 0.21267569 -6.668318e-07 -0.19301583
0.33019257 -2.5930023e-05 0.20916863 0.11841148 0.09469524 0.010790014 0.28565806 1.6899154e-05
0.41761172 0.35429233 0.07766114 0.06520518 -3.2996853e-05 0.004430241 0.0082677435 0.30691525
0.06267879 -3.6527774e-05 0.048186023 0.1904714 0.25793138 -0.0070402985 0.0816757 0.108713135
0.45210734 0.24439347 0.008416436 0.22269027 0.2831242 0.216935 0.4076993 0.3716188
0.22517575 0.068898916 0.037980154 0.13158953 0.3170616 0.3604545 0.30569446 0.18338335
00000000: 513c 353e 5148 dd3e 29df 29b8 c8b9 c53e
00000010: e6a2 923e 4214 e73d 0af9 983d 93ba 183b
00000020: 50c2 683c aa98 97b7 1b6a d53e 0cd4 a3b6
00000030: ae6a 4a3e b8a8 823e 44b7 823e be3c 84b8
00000040: 1782 e2b6 6d8f 6b3e 4d58 b83e cef3 503e
00000050: e224 e83d dbc3 483e aff2 533e 1438 833e
00000060: f70f 7ab8 8c5b 3a39 bad0 de3e d195 19ba
00000070: 097d 08ba 5f7b bc3d 3c3c e23d 32e1 ec3d
00000080: d6d4 ee3d f4cf 023e 622e 963e 98b4 e1b6
00000090: a5d5 703e 4f24 ec3b 4c46 ba3e ce85 2e3e
000000a0: 6232 8b38 3061 0137 7d71 bb3e 110e ae3e
000000b0: ec70 7d3d 3df2 a83e 09a0 18bc 8099 2138
000000c0: b632 f83d 0f35 8d3e d9f4 d4b8 c7a7 733e
000000d0: 52b6 543e 2004 8f3e dd70 623e 642b 343d
000000e0: 91aa e8b6 a21c e23d b217 243e 930b 99b7
000000f0: 595c 3b3e d3fc b93e 950d 803c 7c3a 1c3f
00000100: ce7d 453d 674f b23d 90b7 343e 6fae 813e
00000110: ab9e 403e a488 b03e 4b4d 4c3d 5dd1 67ba
00000120: 9165 a63d 593d b33e 16d8 983e 5247 873c
00000130: 8934 a73e 48f8 993e 2017 8a3e 1769 753e
00000140: 6b64 803d f9fc b23e f003 2fb7 53a5 603d
00000150: 48f6 693e a8c7 593e 5500 33b5 f1a5 45be
00000160: 000f a93e 4d84 d9b7 4d30 563e b881 f23d
00000170: 94ef c13d 99c8 303c c641 923e a8c2 8d37
00000180: 34d1 d53e ce65 b53e ce0c 9f3d 4b8a 853d
00000190: 1a66 0ab8 8e2b 913b 6e75 073c ff23 9d3e
000001a0: bd5d 803d 6635 19b8 b55e 453d ef0a 433e
000001b0: 950f 843e 4eb2 e6bb 9745 a73d fea4 de3d
000001c0: 9d7a e73e 4842 7a3e 17e5 093c eb08 643e
000001d0: a8f5 903e 3524 5e3e f6bd d03e d244 be3e
000001e0: 7994 663e e01a 8d3d 1491 1b3d 68bf 063e
000001f0: e655 a23e 7e8d b83e fc83 9c3e d8c8 3b3e

linear2.weight f4 [64, 128]
-0.042503126 0.09057383 -0.3221825 0.08707444 0.014954162 0.007904765 -0.123231925 -0.028007947
-0.49653208 -0.042100206 0.17577398 -0.50139725 0.007043872 0.12910321 0.0016024879 -0.5929626
-0.0872797 0.044346143 0.05092135 0.04167046 -0.011050397 -0.017999101 -0.0204738 -0.024643693
-0.15214355 -0.13513492 0.16818136 -0.43443957 -0.44840088 -0.08967017 0.0375927 -0.06095617
0.0895643 0.093710765 0.022194756 -0.38887867 -0.027403172 -0.029656481 0.1400978 0.054457117
-0.20054932 -0.45324185 0.1600988 0.04759374 -0.041239787 0.13616084 -0.6327637 -0.20822452
0.12517834 0.04127464 -0.7134518 -0.004932831 0.012522114 0.05138572 0.033949174 -0.0833221
-0.05839334 -0.01996543 -0.08918303 -0.465887 -0.03756484 0.09742294 -0.059243448 2.097199
-0.2043197 0.030470487 0.027837846 -0.01264882 -0.03826698 0.041716073 -0.1886089 -0.64111525
-0.13934982 0.10130314 0.010912591 -0.032943178 0.06185147 0.14113621 0.0006020406 0.08747334
-0.14194636 0.09104596 -0.26991484 -0.25714585 0.0053190375 0.13709857 -0.031805485 -0.19196603
0.18761568 -0.14244863 -0.0012560626 -0.16231419 -0.035658855 -0.018868608 0.21045296 -0.07031793
0.17592467 0.097731255 -0.011888943 -0.06825531 -0.45696944 -0.3358045 -0.0055207 0.05580514
-0.15301283 -0.04315524 -0.20327656 -0.029665625 0.018990407 -0.5999325 -0.11596126 0.004201122
2.3455274 0.14221384 0.053256974 0.14446694 0.053178474 0.094423585 0.15292451 0.036934376
0.06393216 -0.12301239 -0.07881029 0.06308077 0.04169156 0.12019874 -0.017887812 -0.02921774
0.26654443 0.27438182 0.5270567 0.17618677 0.17742266 0.23863342 0.28073388 1.1513692
0.603731 1.2122711 0.19407226 0.7747067 0.22676651 0.2666546 0.25350296 0.7065615
0.43335846 0.21168165 0.2767096 0.28648928 0.25903165 0.34494588 0.20009859 0.2791079
0.4450395 0.3161425 0.2926576 0.9314874 1.0111123 0.28699633 0.30352187 0.38486207
0.28558517 0.3080223 0.3175156 1.1191435 0.17678818 0.42791748 0.2657591 0.28062508
1.4721826 0.7081181 0.24374563 0.28241816 0.27302557 0.24978475 0.5701718 0.48013538
0.3681879 0.30032706 0.7098682 0.314512 0.21642621 0.20245944 0.19477533 1.1614828
0.42925516 0.36540037 0.2793852 0.8106017 0.24048555 0.28744897 1.4676112 -3.0846906
0.2825796 0.3798025 0.27951005 0.26432383 0.22379284 0.2563937 0.27971846 0.52164555
0.27879614 0.22333759 0.205189 0.3935557 0.16669627 0.29764703 0.19123329 0.3294075
0.23334016 0.23348294 0.3425417 0.21650779 0.24739516 0.3740377 1.1834688 0.40034652
0.22478239 0.33912995 0.25510085 0.24826421 0.33296794 0.26929247 0.2537927 0.43926913
0.18088825 0.2130312 0.2956876 0.40498346 0.8453862 0.41465378 0.3565715 0.2097214
0.28212875 0.3891892 0.28381494 0.22253978 0.2985382 0.7779776 0.28060648 0.30809167
-3.0485792 0.3415695 0.37808722 0.25467753 0.27073267 0.22688186 0.29015478 0.25770152
0.31769773 0.34150484 0.3465302 0.24033692 0.2125437 0.2557473 0.17474543 0.26770732
00000000: c217 2ebd c67e b93d 1bf5 a4be 1654 b23d
00000010: 4d02 753c fd82 013c 0561 fcbd ec70 e5bc
00000020: 7439 febe 4471 2cbd 18fe 333e 925b 00bf
00000030: 48d0 e63b a233 043e 920a d23a 66cc 17bf
00000040: b3bf b2bd 4da4 353d e892 503d a5ae 2a3d
00000050: b90c 35bc da72 93bc acb8 a7bc 92e1 c9bc
00000060: 85cb 1bbe cf60 0abe bc37 2c3e dd6e debe
00000070: cd94 e5be fea4 b7bd cefa 193d 2dad 79bd
00000080: 7d6d b73d 6eeb bf3d c7d1 b53c 1b1b c7be
00000090: 9e7c e0bc 26f2 f2bc cc75 0f3e 6d0e 5f3d
000000a0: cd5c 4dbe 510f e8be f1f0 233e a7f1 423d
000000b0: 0deb 28bd bf6d 0b3e cdfc 21bf cf38 55be
000000c0: c02e 003e 990f 293d c7a4 36bf 96a3 a1bb
000000d0: 8e29 4d3c d579 523d 4a0e 0b3d c7a4 aabd
000000e0: db2d 6fbd 8b8e a3bc 98a5 b6bd be88 eebe
000000f0: 97dd 19bd ae85 c73d 42a9 72bd 8238 0640
00000100: 2f39 51be 3e9d f93c 320c e43c ff3c 4fbc
00000110: d6bd 1cbd 79de 2a3d b122 41be 2120 24bf
00000120: b8b1 0ebe 0578 cf3d b9ca 323c 6def 06bd
00000130: f857 7d3d 0386 103e 43d2 1d3a 3925 b33d
00000140: 635a 11be 4e76 ba3d 4732 8abe 9fa8 83be
00000150: 524b ae3b 9163 0c3e 7846 02bd be92 44be
00000160: 531e 403e 0ede 11be 78a2 a4ba b135 26be
00000170: 050f 12bd 5792 9abc fb80 573e d902 90bd
00000180: 9925 343e 5327 c83d d7c9 42bc 71c9 8bbd
00000190: e6f7 e9be 91ee abbe fde6 b4bb ee93 643d
000001a0: 65af 1cbe 8dc3 30bd bb27 50be 5305 f3bc
000001b0: c591 9b3c 2d95 19bf 197d edbd 91a9 893b
000001c0: 1f1d 1640 81a0 113e fc23 5a3d 24ef 133e
000001d0: acd1 593d 2761 c13d 3e98 1c3e 8048 173d
000001e0: ddee 823d eced fbbd 4a67 a1bd 7e30 813d
000001f0: c5c4 2a3d c22a f63d 7689 92bc 0b5a efbc
00000200: 8378 883e c67b 8c3e 30ed 063f 4e6a 343e
00000210: 49ae 353e 525c 743e 5abc 8f3e 1160 933f
00000220: 1d8e 1a3f b32b 9b3f e1ba 463e 2e53 463f
00000230: 7b35 683e f486 883e 24cb 813e 37e1 343f
00000240: 29e1 dd3e 13c3 583e e1ac 8d3e b9ae 923e
00000250: cc9f 843e bf9c b03e a5e6 4c3e 3be7 8e3e
00000260: 38dc e33e 6edd a13e 38d7 953e f575 6e3f
00000270: 216c 813f 2ff1 923e 3867 9b3e a40c c53e
00000280: 3838 923e 19b5 9d3e 6891 a23e 1840 8f3f
00000290: f607 353e 0018 db3e 9411 883e 17ae 8f3e
000002a0: 7b70 bc3f 3a47 353f 7498 793e 1d99 903e
000002b0: 02ca 8b3e 93c7 7f3e c7f6 113f 4ed4 f53e
000002c0: 2083 bc3e 78c4 993e ecb9 353f b807 a13e
000002d0: d59e 5d3e 8751 4f3e 2f73 473e 78ab 943f
000002e0: 55c7 db3e c215 bb3e 940b 8f3e 9883 4f3f
000002f0: d841 763e 832c 933e afda bb3f 926b 45c0
00000300: 46ae 903e 7975 c23e f11b 8f3e 7455 873e
00000310: f329 653e 0946 833e 4237 8f3e 908a 053f
00000320: 5ebe 8e3e 9cb2 643e 111d 523e 2280 c93e
00000330: 6db2 2a3e 3165 983e a9d2 433e 1aa8 a83e
00000340: b9f0 6e3e 2716 6f3e a061 af3e 38b4 5d3e
00000350: 2855 7d3e df81 bf3e e87b 973f 38fa cc3e
00000360: 5b2d 663e 71a2 ad3e 949c 823e f938 7e3e
00000370: c67a aa3e b4e0 893e 1ef1 813e e2e7 e03e
00000380: c53a 393e da24 5a3e 5d64 973e fe59 cf3e
00000390: 3b6b 583f 804d d43e 8a90 b63e 35c1 563e
000003a0: 2e73 903e cf43 c73e 3150 913e 78e1 633e
000003b0: 00da 983e 8a29 473f a7ab 8f3e 31be 9d3e
000003c0: ec1b 43c0 33e2 ae3e a694 c13e 1865 823e
000003d0: 799d 8a3e b853 683e 2b8f 943e 74f1 833e
000003e0: 47a9 a23e b9d9 ae3e 686c b13e e21a 763e
000003f0: 0ea5 593e 4ff1 823e 77f0 323e ef10 893e

linear2.bias f4 [64]
0.31378368 0.35683897 0.4182617 0.29423228 0.42592037 0.46780196 0.38340613 0.3624513
0.4152982 -0.28052834 0.33932498 0.267566 0.3734699 0.31819534 0.39483118 0.46496224
0.48530352 0.4509462 0.42185003 0.45272097 0.32327473 0.4275018 0.42927253 0.45656884
-0.27155095 0.43657202 -0.2937973 0.44439882 0.4506843 0.424521 0.32522488 -0.33299482
0.41125605 0.27708545 0.43631548 -0.28619826 0.42532036 0.46936637 0.41555607 0.35058942
0.48447254 -0.28844288 0.31482366 0.19380298 0.38000116 -0.29870173 0.28934875 0.32546905
0.46775842 -0.30831644 -0.36046875 -0.28237244 0.31961793 0.45507476 0.4734621 0.46830294
-0.3155901 -0.34049568 -0.31227306 0.35377136 -0.31104922 0.3853032 0.49288377 0.35017943
00000000: 41a8 a03e 99b3 b63e 6626 d63e 9da5 963e
00000010: 3c12 da3e bd83 ef3e cf4d c43e 3793 b93e
00000020: f7a1 d43e 69a1 8fbe 01bc ad3e 69fe 883e
00000030: 7237 bf3e 80ea a23e 5027 ca3e 880f ee3e
00000040: b479 f83e 6ce2 e63e bafc d73e 0bcb e73e
00000050: 4484 a53e 84e1 da3e 9cc9 db3e 64c3 e93e
00000060: ba08 8bbe 5e86 df3e 9a6c 96be 3e88 e33e
00000070: 18c0 e63e d15a d93e e083 a63e 4c7e aabe
00000080: 2790 d23e 25de 8d3e be64 df3e 9488 92be
00000090: 97c3 d93e ca50 f03e c4c3 d43e 7580 b33e
000000a0: c90c f83e c9ae 93be 9130 a13e 4a74 463e
000000b0: 838f c23e 6fef 98be 8525 943e e1a3 a63e
000000c0: 087e ef3e a7db 9dbe 5c8f b8be 1f93 90be
000000d0: f6a4 a33e 8fff e83e a069 f23e 67c5 ef3e
000000e0: 0795 a1be 7355 aebe 41e2 9fbe 8521 b53e
000000f0: d841 9fbe 7646 c53e 435b fc3e b84a b33e

linear3.weight f4 [1, 64]
-2.253012 0.51517063 0.48612052 0.5075758 0.48340017 0.4884145 0.46341178 0.45612493
0.5027703 -0.60907906 0.4952279 -1.8772353 0.47071865 0.4919395 -2.4727292 0.45371363
0.47033384 0.4895956 0.4447137 0.48431388 0.4858098 0.5140896 0.45946357 0.49485344
-0.616765 0.49424317 -0.6783561 0.4864399 0.449211 0.432799 0.47614026 -0.8019677
0.46013907 -2.246351 0.49542427 -0.6559649 0.5102839 0.46792504 0.46646872 -2.3893654
0.4580358 -0.66708905 0.4991679 -1.9738588 0.4575157 -0.53483474 0.5227552 0.53508
0.44675404 -0.81148124 -0.987765 -0.7062586 0.5269295 0.45330957 0.4016976 0.4460359
-0.72192585 -0.86694247 -0.8573885 0.45850465 -0.68287444 0.47447562 0.44620067 0.4697851
00000000: 5931 10c0 39e2 033f cae4 f83e 7df0 013f
00000010: 3a80 f73e 7711 fa3e 4f44 ed3e 3589 e93e
00000020: 8eb5 003f 9bec 1bbf 838e fd3e 3f49 f0bf
00000030: 0902 f13e 7fdf fb3e 3241 1ec0 274d e83e
00000040: 99cf f03e 46ac fa3e 84b1 e33e fdf7 f73e
00000050: 10bc f83e 609b 033f cf3e eb3e 6e5d fd3e
00000060: 50e4 1dbf 710d fd3e bfa8 2dbf a70e f93e
00000070: fcfe e53e d597 dd3e a8c8 f33e c14d 4dbf
00000080: 5997 eb3e 37c4 0fc0 40a8 fd3e 51ed 27bf
00000090: f7a1 023f df93 ef3e fdd4 ee3e 5deb 18c0
000000a0: ab83 ea3e 59c6 2abf ef92 ff3e 68a7 fcbf
000000b0: 7f3f ea3e eeea 08bf 49d3 053f 01fb 083f
000000c0: f2bc e43e 3cbd 4fbf 2bde 7cbf 5dcd 34bf
000000d0: dae4 063f 3118 e83e 4fab cd3e d15e e43e
000000e0: 22d0 38bf f1ef 5dbf d07d 5bbf 1fc1 ea3e
000000f0: dcd0 2ebf 78ee f23e 6a74 e43e ac87 f03e

exp_avg f4 [128, 14]
207.93094 31.741776 4.3006206 18.899345 -4.1253514 -2.4136143 -0.04439688 0.06822448
20.569082 26.575603 -1.3416217e-06 2.1635344e-07 1.3977326e-06 4.1064337e-07 148.12715 50.277695
-2.179506 9.22543 -4.408647 -3.6636455 -0.5453212 0.04064034 5.944101 10.556095
1.2707184e-06 -2.1798594e-07 -1.0020239e-05 -1.0046162e-05 427.50848 188.37822 17.622519 65.5814
-6.5412426 -3.8839498 0.051815066 0.14999036 105.60541 116.145645 -1.1961972e-06 -4.103834e-07
-1.005562e-05 -1.005477e-05 165.34145 23.599495 5.0281734 22.23588 -4.219114 -3.5568244
-0.6343976 0.042962275 31.234676 34.436317 -6.304267e-07 -1.1961972e-06 -1.0039588e-05 -1.0038228e-05
115.85863 78.70556 -0.8832638 15.451954 -1.0020152 -1.7771385 -0.869935 0.057346582
15.770194 20.296375 7.7690476e-07 -2.1798594e-07 -1.4364684e-07 -1.0027863e-05 223.266 77.01717
-0.16566147 21.060638 -4.9295993 -4.1034136 -0.8804575 0.058558274 33.485123 32.913334
3.4515793e-07 1.5673875e-06 -1.0042244e-05 -1.0052807e-05 92.56404 123.19489 5.3275385 26.090273
-5.8876843 -4.874544 -0.09004468 -0.010560859 45.370064 44.148834 -4.1064425e-07 -1.3172838e-06
-2.5747413e-06 -1.0026577e-05 -14.212169 -15.145713 -18.404148 3.978822 0.007843773 0.009814497
-0.0059975632 -0.009335965 0.07395607 0.094399646 -1.855397e-07 4.1064425e-07 -1.00057805e-05 -2.1798594e-07
608.581 113.238235 31.716703 104.17775 -10.251802 -8.518173 -0.024992913 -0.0046666167
130.03989 146.86815 -1.5673875e-06 4.1064425e-07 1.4794039e-08 4.106423e-07 2.3815422 0.19739856
0.32381794 20.370222 0.007975747 0.0105150705 -0.007759804 -0.008710163 0.07666103 0.0994409
-1.3172838e-06 -6.304267e-07 1.3416219e-06 -6.304265e-07 117.37751 105.93817 3.642293 20.725925
-0.82560617 -1.462911 -0.41495216 0.028266275 23.961933 26.043463 7.276028e-07 -1.4364532e-07
7.244978e-07 -1.0044257e-05 -2.994219 158.20107 -8.151855 15.375431 0.29455024 0.1331778
-3.7204556 -0.0044485973 -0.7367514 3.8494217 6.304267e-07 4.1064425e-07 1.0013237e-05 5.5876995e-07
218.49629 77.29655 2.8337936 26.587002 -1.0329316 -1.8229829 -0.038328502 0.05582122
33.569386 39.611546 3.7957918e-07 1.855397e-07 6.304224e-07 -1.00237485e-05 28.509455 43.55537
1.4316982 15.27294 -4.9252653 -4.079336 -0.4800992 0.0355038 11.41897 15.003399
1.4474092e-06 -6.304267e-07 1.5454425e-06 -1.001586e-05 171.73474 89.06953 2.4034202 26.302483
-0.86131805 -1.5426934 -0.8881597 -0.002939127 36.50062 41.11572 1.5673875e-06 2.0765813e-06
-1.0013183e-05 -7.013382e-07 733.39667 274.64014 38.542183 123.53584 -9.391288 -5.616429
-0.028698478 -0.014076248 164.02249 176.49155 4.1064425e-07 -1.2030114e-06 -1.006935e-05 -1.00655e-05
244.7896 -1.1363609 12.769511 50.48822 -5.490022 -4.627467 -1.3172134 0.08565304
62.99526 69.135185 -8.707211e-07 -4.1064425e-07 1.0007241e-05 -9.175726e-08 152.91081 69.874725
4.1547875 30.365715 -4.4246755 -3.7169778 -0.83021516 0.057251822 41.54937 45.86968
-8.6891663e-07 -2.0765813e-06 -1.0015516e-05 -1.0029841e-05 144.15576 95.63413 -0.46590242 12.029361
00000000: 52ee 4f43 28ef fd41 af9e 8940 dc31 9741
00000010: e102 84c0 a878 1ac0 81d9 35bd 47b9 8b3d
00000020: 7b8d a441 d69a d441 c511 b4b5 c84e 6834
00000030: ba99 bb35 6576 dc34 8d20 1443 5c1c 4942
00000040: 077d 0bc0 5c9b 1341 a313 8dc0 2b79 6ac0
00000050: 2c9a 0bbf 7c76 263d 1336 be40 c4e5 2841
00000060: 8d8d aa35 850f 6ab4 991c 28b7 f08b 28b7
00000070: 16c1 d543 d360 3c43 ebfa 8c41 ad29 8342
00000080: dc51 d1c0 a292 78c0 093c 543d 1397 193e
00000090: f835 d342 924a e842 068d a0b5 aa52 dcb4
000000a0: 8fb4 28b7 e9b0 28b7 6957 2543 c4cb bc41
000000b0: cce6 a040 15e3 b141 fb02 87c0 03a3 63c0
000000c0: e267 22bf 36f9 2f3d 9ee0 f941 cabe 0942
000000d0: 983a 29b5 068d a0b5 b46f 28b7 dc69 28b7
000000e0: 9eb7 e742 3f69 9d42 941d 62bf 343b 7741
000000f0: 0942 80bf 4679 e3bf 0fb4 5ebf 40e4 6a3d
00000100: b752 7c41 fa5e a241 7d8c 5035 850f 6ab4
00000110: 583d 1ab4 583d 28b7 1944 5f43 cb08 9a42
00000120: 29a3 29be 307c a841 47bf 9dc0 2a4f 83c0
00000130: aa65 61bf cdda 6f3d c4f0 0542 41a7 0342
00000140: 254e b934 065f d235 1c7b 28b7 7aa8 28b7
00000150: ca20 b942 c963 f642 327b aa40 e1b8 d041
00000160: e967 bcc0 44fc 9bc0 5869 b8bd 7407 2dbc
00000170: f27a 3542 6898 3042 8476 dcb4 87cd b0b5
00000180: b8c9 2cb6 d237 28b7 0b65 63c1 d754 72c1
00000190: b23b 93c1 05a5 7e40 2b83 003c fccc 203c
000001a0: 3587 c4bb e0f5 18bc 4876 973d 9a54 c13d
000001b0: c438 47b4 8476 dc34 80de 27b7 850f 6ab4
000001c0: 2f25 1844 fa79 e242 cfbb fd41 025b d042
000001d0: 6207 24c1 704a 08c1 f0bd ccbc 6bea 98bb
000001e0: 360a 0243 3fde 1243 065f d2b5 8476 dc34
000001f0: df28 7e32 3f76 dc34 306b 1840 d922 4a3e
00000200: 77cb a53e 37f6 a241 b5ac 023c 6747 2c3c
00000210: f445 febb 12b5 0ebc 7500 9d3d aca7 cb3d
00000220: 87cd b0b5 983a 29b5 c711 b435 943a 29b5
00000230: 49c1 ea42 58e0 d342 541b 6940 b2ce a541
00000240: ed5a 53bf ab40 bbbf 9c74 d4be ad8e e73c
00000250: 0ab2 bf41 0359 d041 7c50 4335 ed3c 1ab4
00000260: 1c7b 4235 c183 28b7 49a1 3fc0 7933 1e43
00000270: 006e 02c1 c401 7641 4acf 963e c35f 083e
00000280: f21b 6ec0 8ac5 91bb bd9b 3cbf ed5c 7640
00000290: 983a 2935 8476 dc34 87fe 2737 61fe 1535
000002a0: 0d7f 5a43 d597 9a42 e05c 3540 2eb2 d441
000002b0: 1a37 84bf 8157 e9bf 59fe 1cbd cba4 643d
000002c0: 0d47 0642 3972 1e42 f7c8 cb34 c438 4734
000002d0: 4c3a 2935 ac2b 28b7 5d13 e441 b338 2e42
000002e0: e341 b73f f65d 7441 c69b 9dc0 ec89 82c0
000002f0: 90cf f5be 6f6c 113d 1ab4 3641 ec0d 7041
00000300: 9a44 c235 983a 29b5 006d cf35 cb09 28b7
00000310: 18bc 2b43 9923 b242 a3d1 1940 7c6b d241
00000320: 577f 5cbf fa76 c5bf 6f5e 63bf 5e9e 40bb
00000330: a300 1242 7f76 2442 065f d235 655b 0b36
00000340: 4bfe 27b7 9843 3cb5 6359 3744 f051 8943
00000350: 322b 1a42 5a12 f742 b742 16c1 c9b9 b3c0
00000360: 1219 ebbc 10a0 66bc c205 2443 d67d 3043
00000370: 8476 dc34 2877 a1b5 87ef 28b7 fede 28b7
00000380: 23ca 7443 4674 91bf eb4f 4c41 f0f3 4942
00000390: 43ae afc0 3614 94c0 739a a8bf dc6a af3d
000003a0: 25fb 7b42 3745 8a42 80bb 69b5 8476 dcb4
000003b0: c6e4 2737 160c c5b3 2be9 1843 dcbf 8b42
000003c0: 05f4 8440 fcec f241 f196 8dc0 f7e2 6dc0
000003d0: fb88 54bf e380 6a3d 8e32 2642 8d7a 3742
000003e0: 7f3f 69b5 655b 0bb6 5008 28b7 d745 28b7
000003f0: e027 1043 ad44 bf42 c38a eebe 4378 4041

exp_avg_sq f4 [128, 14]
256687.12 244195.27 6010.23 5435.647 2743.8584 3393.969 303.11703 445.8444
2786.9177 2740.0327 1.0000809e-10 1.0000809e-10 1.3332306e-06 4.0237133e-10 162508.06 168915.81
2052.439 1935.869 2032.1636 2082.7207 66.493416 83.44582 1238.933 1413.9391
1.0000809e-10 1.0000809e-10 1.6439498e-07 4.902566e-06 675083.06 651026.0 6951.229 14633.613
7510.851 9076.168 137.18158 1166.7367 9514.963 10036.206 1.0000809e-10 1.0000809e-10
3.1302775e-06 0.0001058949 160718.56 171043.8 2446.605 2334.7788 2006.6342 2185.7383
123.211235 155.38695 1543.2429 1621.7909 1.0000809e-10 1.0000809e-10 2.1980593e-07 6.4913693e-06
228496.3 221893.42 4136.4185 3717.9187 2402.47 2892.8381 239.46033 296.7963
2077.9324 2085.8682 1.0000809e-10 1.0000809e-10 1.2240976e-06 1.3311596e-05 233181.16 221368.23
4522.0693 3779.8052 2458.951 2692.234 230.17526 310.28815 2071.711 2050.9634
1.0000809e-10 1.0000809e-10 1.4018307e-06 1.5102923e-05 296759.8 304728.66 8283.206 7536.7593
2982.2114 3411.4607 471.90668 677.15546 3895.1123 3184.008 1.0000809e-10 1.0000809e-10
2.7867097e-06 3.202994e-05 13425.901 52320.152 33562.742 43208.742 753.256 2097.022
2470.6875 2861.6504 4259.5366 1538.918 1.0000809e-10 1.0000809e-10 9.658573e-07 1.0000809e-10
1.1634948e+06 1.0649182e+06 3217.1133 17362.434 12645.703 13329.806 32.664154 279.30008
10548.959 14438.253 1.0000809e-10 1.0000809e-10 1.0623603e-10 1.3959732e-09 10497.149 11435.763
39129.387 40065.418 647.7201 2241.388 1601.712 2587.493 2896.6643 1244.3375
1.0000809e-10 1.0000809e-10 1.0000809e-10 1.0000809e-10 158821.2 162309.38 1520.1198 1585.7979
1426.5934 1801.469 58.36292 71.68276 1111.7424 1415.857 1.0000809e-10 1.0000809e-10
2.9803e-07 2.615821e-06 25351.037 1.4967774e+06 49252.06 35906.55 6735.6543 16733.512
1869.9072 332.94995 11499.413 8462.276 1.0000809e-10 1.0000809e-10 1.4170437e-05 1.0007378e-10
252969.08 249254.97 3912.6765 3625.2 2627.777 3188.359 209.42775 277.39224
1976.1213 2138.0383 1.0000809e-10 1.0000809e-10 1.2055245e-06 1.2318152e-05 201662.45 200964.36
1888.6998 2133.6614 2547.861 2820.9307 88.36841 137.78522 1414.5092 1582.8192
1.0000809e-10 1.0000809e-10 4.985583e-07 4.513003e-06 181044.95 172343.19 4090.337 3644.4827
2118.3914 2243.8572 230.88393 285.48856 2017.9883 1750.1425 1.0000809e-10 1.0000809e-10
8.2344224e-07 3.2141584e-10 1.2768701e+06 1.1578826e+06 4496.973 20360.836 13365.879 14563.21
197.04965 1487.1882 15873.295 19876.523 1.0000809e-10 1.0000809e-10 7.477349e-06 0.00025295126
350230.03 352795.62 9056.754 8694.059 3551.9453 4856.424 568.688 695.44727
4891.056 4278.5566 1.0000809e-10 1.0000809e-10 2.1770566e-06 4.8900156e-10 220504.97 214115.42
3831.1433 3490.7158 2177.717 2599.3076 132.55107 157.3874 2199.5386 2186.941
1.0000809e-10 1.0000809e-10 4.3092408e-07 1.2773927e-05 174581.86 163532.36 2249.5361 2340.3003
00000000: c8ab 7a48 d178 6e48 d7d1 bb45 2ddd a945
00000010: bc7d 2b45 811f 5445 fb8e 9743 15ec de43
00000020: af2e 2e45 8640 2b45 8deb db2e 8deb db2e
00000030: 74f1 b235 bb34 dd2f 04b3 1e48 f4f4 2448
00000040: 0647 0045 cffb f144 3c05 fe44 882b 0245
00000050: a1fc 8442 43e4 a642 dbdd 9a44 0dbe b044
00000060: 8deb db2e 8deb db2e 8c84 3034 b980 a436
00000070: b1d0 2449 20f1 1e49 d539 d945 74a6 6446
00000080: cfb6 ea45 acd0 0d46 7c2e 0943 93d7 9144
00000090: daab 1446 d3d0 1c46 8deb db2e 8deb db2e
000000a0: c211 5236 e413 de38 a4f3 1c48 f308 2748
000000b0: aee9 1845 76ec 1145 4bd4 fa44 d09b 0845
000000c0: 276c f642 0f63 1b43 c6e7 c044 4fb9 ca44
000000d0: 8deb db2e 8deb db2e cb03 6c34 70d0 d936
000000e0: 1324 5f48 5bb1 5848 5943 8145 b35e 6845
000000f0: 8527 1645 69cd 3445 d875 6f43 ed65 9443
00000100: ebde 0145 e45d 0245 8deb db2e 8deb db2e
00000110: ac4b a435 df54 5f37 4ab7 6348 0f2e 5848
00000120: 8e50 8d45 e23c 6c45 37af 1945 be43 2845
00000130: de2c 6643 e224 9b43 607b 0145 6a2f 0045
00000140: 8deb db2e 8deb db2e 8926 bc35 8f62 7d37
00000150: fae6 9048 15cb 9448 d36c 0146 1386 eb45
00000160: 6263 3a45 5f37 5545 0ef4 eb43 f349 2944
00000170: cc71 7345 2100 4745 8deb db2e 8deb db2e
00000180: 4f03 3b36 e357 0638 9bc7 5146 2760 4c47
00000190: be1a 0347 bec8 2847 6250 3c44 5a10 0345
000001a0: 006b 1a45 68da 3245 4b1c 8545 605d c044
000001b0: 8deb db2e 8deb db2e 9ba2 8135 8deb db2e
000001c0: 3607 8e49 b2fe 8149 d011 4945 dea4 8746
000001d0: d096 4546 3947 5046 18a8 0242 69a6 8b43
000001e0: d6d3 2446 0399 6146 8deb db2e 8deb db2e
000001f0: 919d e92e 71dc bf30 9904 2446 0daf 3246
00000200: 63d9 1847 6b81 1c47 16ee 2144 3516 0c45
00000210: c936 c844 e3b7 2145 a10a 3545 cd8a 9b44
00000220: 8deb db2e 8deb db2e 8deb db2e 8deb db2e
00000230: 4d19 1b48 5881 1e48 d503 be44 8839 c644
00000240: fd52 b244 022f e144 a173 6942 935d 8f42
00000250: c2f7 8a44 6dfb b044 8deb db2e 8deb db2e
00000260: ee00 a034 768b 2f36 130e c646 4bb6 b649
00000270: 0f64 4047 8d42 0c47 3c7d d245 06bb 8246
00000280: 08bd e944 9879 a643 a7ad 3346 1b39 0446
00000290: 8deb db2e 8deb db2e 90bd 6d37 8810 dc2e
000002a0: 450a 7748 be69 7348 d38a 7445 3393 6245
000002b0: 6f3c 2445 be45 4745 816d 5143 35b2 8a43
000002c0: e203 f744 9da0 0545 8deb db2e 8deb db2e
000002d0: 82cd a135 0faa 4e37 9def 4448 1741 4448
000002e0: 6516 ec44 955a 0545 c73d 1f45 e44e 3045
000002f0: a0bc b042 04c9 0943 4bd0 b044 37da c544
00000300: 8deb db2e 8deb db2e aad4 0535 676e 9736
00000310: 3dcd 3048 cc4d 2848 64a5 7f45 b9c7 6345
00000320: 4366 0445 b73d 0c45 49e2 6643 89be 8e43
00000330: a03f fc44 8fc4 da44 8deb db2e 8deb db2e
00000340: 850a 5d35 42b3 b02f 31de 9b49 d557 8d49
00000350: c987 8c45 ac11 9f46 84d7 5046 d78c 6346
00000360: b60c 4543 06e6 b944 2e05 7846 0c49 9b46
00000370: 8deb db2e 8deb db2e f0e5 fa36 8b9e 8439
00000380: c102 ab48 7443 ac48 0483 0d46 3cd8 0746
00000390: 20ff 5d45 64c3 9745 082c 0e44 a0dc 2d44
000003a0: 73d8 9845 74b4 8545 8deb db2e 8deb db2e
000003b0: 8c19 1236 6d6a 0630 3e56 5748 db18 5148
000003c0: 4b72 6f45 742b 5a45 791b 0845 ec74 2245
000003d0: 138d 0443 2d63 1d43 9e78 0945 0eaf 0845
000003e0: 8deb db2e 8deb db2e c159 e734 994f 5637
000003f0: 777d 2a48 17b3 1f48 9498 0c45 ce44 1245

exp_avg f4 [128]
246.94055 200.89119 572.13464 186.57336 205.07445 295.62085 219.80276 41.542606
721.43646 20.68104 223.8347 170.68718 287.28403 81.49532 263.9206 950.41504
225.5056 224.06862 232.62285 174.429 88.23328 256.57288 118.9725 180.64867
416.30182 317.45178 216.67511 118.609116 249.4099 297.25714 319.59323 296.10663
245.87813 19.048204 249.9393 -23.748116 243.22939 248.81331 136.27513 233.9738
404.59116 113.71267 190.05191 249.5136 67.76799 188.793 876.68335 381.10696
365.287 274.1555 1022.8978 239.92264 376.93295 94.22941 33.115448 443.74683
270.56076 258.48267 150.88025 316.5037 327.6021 193.26305 284.46445 -199.66498
392.9147 79.175156 167.49493 231.72678 326.23373 260.196 143.55357 215.53177
207.1818 195.93085 121.28821 341.21805 202.49905 96.577446 238.87009 201.79565
486.52084 167.80887 339.00848 392.91388 103.231735 -44.23157 15.417357 -6.7092614
228.15819 135.99783 128.11732 249.72241 389.9995 281.5559 114.61118 518.90717
114.48862 157.6426 294.05188 311.13705 38.04722 345.01486 26.465445 214.20879
259.74548 154.54477 330.09412 289.38843 93.032364 -133.55615 180.86217 208.86572
-720.10706 154.77383 195.36642 219.8859 316.41037 115.59883 310.19073 119.54507
205.82655 236.9603 221.31427 232.57214 151.54585 205.34996 198.85527 258.15738
00000000: c8f0 7643 25e4 4843 9e08 0f44 c892 3a43
00000010: 0f13 4d43 78cf 9343 82cd 5b43 a12b 2642
00000020: ef5b 3444 c572 a541 afd5 5f43 ebaf 2a43
00000030: 5ba4 8f43 9bfd a242 d6f5 8343 909a 6d44
00000040: 6f81 6143 9111 6043 739f 6843 d36d 2e43
00000050: 7077 b042 5449 8043 ecf1 ed42 0fa6 3443
00000060: a226 d043 d4b9 9e43 d4ac 5843 de37 ed42
00000070: ef68 7943 eaa0 9443 efcb 9f43 a60d 9443
00000080: cde0 7543 b962 9841 76f0 7943 24fc bdc1
00000090: b93a 7343 35d0 7843 6f46 0843 4bf9 6943
000000a0: ab4b ca43 e36c e342 4a0d 3e43 7b83 7943
000000b0: 3689 8742 02cb 3c43 bc2b 5b44 b18d be43
000000c0: bca4 b643 e713 8943 76b9 7f44 32ec 6f43
000000d0: 6b77 bc43 7575 bc42 3876 0442 98df dd43
000000e0: c747 8743 c83d 8143 58e1 1643 7940 9e43
000000f0: 12cd a343 5743 4143 733b 8e43 3caa 47c3
00000100: 1575 c443 ae59 9e42 b47e 2743 0eba 6743
00000110: eb1d a343 1719 8243 b78d 0f43 2288 5743
00000120: 8a2e 4f43 4cee 4343 9093 f242 e99b aa43
00000130: c27f 4a43 a727 c142 bede 6e43 b0cb 4943
00000140: ab42 f343 12cf 2743 1681 a943 fa74 c443
00000150: a676 ce42 21ed 30c2 7fad 7641 45b2 d6c0
00000160: 7f28 6443 72ff 0743 091e 0043 f0b8 7943
00000170: f0ff c243 28c7 8c43 ed38 e542 0fba 0144
00000180: 2cfa e442 81a4 1d43 a406 9343 8b91 9b43
00000190: 5a30 1842 e781 ac43 3bb9 d341 7335 5643
000001a0: 6cdf 8143 768b 1a43 0c0c a543 b8b1 9043
000001b0: 9210 ba42 608e 05c3 b7dc 3443 a0dd 5043
000001c0: da06 34c4 1ac6 1a43 ce5d 4343 cae2 5b43
000001d0: 8734 9e43 9a32 e742 6a18 9b43 1317 ef42
000001e0: 99d3 4d43 d6f5 6c43 7450 5d43 7892 6843
000001f0: bd8b 1743 9759 4d43 f3da 4643 2514 8143

exp_avg_sq f4 [128]
513979.62 334715.06 1.342192e+06 336157.88 461326.25 475394.97 620724.25 209560.52
2.3627362e+06 113182.98 332802.1 1.6140114e+06 523956.56 409064.56 364844.16 2.4465095e+06
718520.2 439013.66 337491.28 490165.22 469700.62 422392.34 452765.0 459564.44
826977.56 746752.8 351742.5 2.366267e+06 2.6410612e+06 604101.7 601606.2 528392.8
532495.1 505263.1 432963.62 63734.33 460903.72 655033.9 356005.03 455587.88
5.296629e+06 1.5503984e+06 379189.03 439966.06 663107.0 417201.88 1.8467206e+06 996088.25
495896.56 336873.56 3.282562e+06 349360.7 476369.72 413529.5 397105.4 3.4003118e+06
729241.75 545969.56 508989.38 1.731977e+06 558910.0 411689.4 5.4889005e+06 346000.47
685337.3 610209.94 469855.1 431780.8 486641.25 318990.44 646420.44 1.4593844e+06
597280.56 413906.06 337065.25 626698.2 278656.03 403008.62 435080.16 383145.44
569192.7 378079.56 1.071694e+06 784684.44 416527.1 481077.34 111729.5 1776.7677
394574.3 624985.9 460364.66 611668.75 564772.7 647451.2 409180.1 833945.75
311386.9 321205.78 582487.2 689456.9 2.2886772e+06 1.1049564e+06 780140.9 401367.9
606886.3 660725.0 696598.7 516200.9 401395.9 1.5217181e+06 618188.2 526075.3
2.0968048e+07 460548.1 621423.9 441020.06 376136.53 399413.22 369184.06 332562.56
459926.25 684030.1 629085.3 532874.06 364536.5 323687.4 324474.6 434222.94
00000000: 74f7 fa48 626f a348 80d7 a349 bc23 a448
00000010: c841 e148 5f20 e848 448b 1749 21a6 4c48
00000020: c135 104a 7d0f dd47 4380 a248 db05 c549
00000030: 92d6 ff48 12bd c748 8525 b248 b652 154a
00000040: 836b 2f49 b55c d648 69ca a448 a756 ef48
00000050: 9458 e548 0b3f ce48 a013 dd48 8e65 e048
00000060: 19e6 4949 0d50 3649 d0bf ab48 ec6c 104a
00000070: 9532 214a 5b7c 1349 63e0 1249 8d00 0149
00000080: f200 0249 e3b5 f648 7468 d348 54f6 7847
00000090: f70c e148 9eeb 1f49 a1d4 ad48 7c74 de48
000000a0: eaa3 a14a f341 bd49 a126 b948 c2d3 d648
000000b0: 30e4 2149 3cb6 cb48 056e e149 842f 7349
000000c0: 1223 f248 327d a448 085a 484a 1696 aa48
000000d0: 379a e848 30eb c948 2de6 c148 df89 4f4a
000000e0: 9c09 3249 194b 0549 ac87 f848 486c d349
000000f0: e073 0849 2d05 c948 0982 a74a 0ff2 a848
00000100: 9551 2749 1ffa 1449 e36b e548 9ad4 d248
00000110: 289e ed48 cec1 9b48 47d1 1d49 c325 b249
00000120: 09d2 1149 421a ca48 2895 a448 a300 1949
00000130: 0110 8848 14c8 c448 0571 d448 2e15 bb48
00000140: 8bf6 0a49 f29b b848 70d2 8249 c792 3f49
00000150: e361 cb48 abe6 ea48 c038 da47 9118 de44
00000160: caa9 c048 9e95 1849 95c9 e048 4c55 1549
00000170: 4be2 0949 b311 1e49 83cb c748 9c99 4b49
00000180: 5d0b 9848 b9d6 9c48 7335 0e49 0e53 2849
00000190: 95b0 0b4a e3e1 8649 ce76 3e49 fdfa c348
000001a0: 652a 1449 504f 2149 6b11 2a49 1d0d fc48
000001b0: 7dfe c348 b1c1 b949 c3ec 1649 b56f 0049
000001c0: 38f9 9f4b 83e0 e048 feb6 1749 8257 d748
000001d0: 11a9 b748 a706 c348 0244 b448 5262 a248
000001e0: c892 e048 e2ff 2649 d595 1949 a118 0249
000001f0: 10ff b148 ed0c 9e48 536f 9e48 de05 d448

exp_avg f4 [64, 128]
-16.584843 -7.80863 -11.429513 -21.017159 -14.940448 1.4814742 -2.057972 0.8468684
-5.3736224 0.012026708 -18.9025 0.14920226 -6.201406 -14.687204 -7.653422 -9.657505
-8.223971 -11.69309 0.83021665 -13.226927 -12.651516 -3.6543615 -12.980205 3.085999
-9.778987 -7.2991877 -17.156948 0.39876744 0.24854395 -10.11048 -14.299265 -10.152603
-10.8397665 0.16344371 -11.6204605 -0.002729845 -13.560816 -9.556408 -17.252993 -17.911682
0.865051 0.1709346 -11.027224 -16.338701 -7.8169346 -17.897171 -3.1680987 -0.0030168884
-7.030498 -8.188555 -2.1193173 1.6159583 -12.714089 -4.5891147 -0.8841575 1.393813
-6.8433146 -10.051008 -10.499221 0.007200747 -8.243547 -17.782156 1.4152601 -3.7945778
-5.642791 -12.933268 -13.894244 -9.405354 -8.971614 -11.514301 0.67440486 -0.0012972559
-6.331814 -14.49562 -1.0376923 -10.684593 -20.30458 -11.667339 -10.153628 -16.896694
-5.7770057 -17.5322 -8.730137 -6.9340143 -10.540245 -13.86538 0.014036281 -0.00020196609
-14.271194 -8.043878 -14.94498 -1.5716133 -14.978818 -4.6694913 -18.64511 -10.202423
-4.1959662 -15.813751 -7.6857414 -9.386963 0.0121291485 -7.8188686 -10.843097 -14.530704
-5.5271974 -15.624891 -5.472841 -11.095223 -18.10169 -0.0025317366 -7.169402 -11.141529
-0.05481963 -7.292723 -5.6280837 -1.1200655 -10.560695 -9.260508 -17.003778 -16.873432
-9.392317 -9.73308 -10.356835 2.165789 -12.128726 -18.424175 -14.283102 -11.05657
15.970176 20.895782 17.095041 22.237608 13.793402 22.1595 7.526735 0.06984574
8.679928 0.2020333 23.3442 4.613824 20.388145 4.698893 26.17416 16.341528
10.320647 13.9249525 28.275478 13.122866 4.747395 22.886654 10.560104 14.848302
19.694551 17.138325 22.183596 2.1263683 3.2095842 11.669208 21.895657 21.065279
11.40553 -3.658396 17.9418 -0.16376421 19.777206 11.784726 18.16945 17.912907
1.6361142 2.6512413 20.683178 18.794392 2.945347 15.739507 19.165972 12.231106
24.881908 27.848898 12.61939 24.190126 27.508778 9.3956995 1.2387105 0.6795241
15.4907 14.933292 11.748684 5.709232 19.588366 20.535887 0.7465057 0.8715445
13.057309 5.467998 14.82141 17.91598 22.685204 32.3554 7.351924 8.254519
9.001609 18.304722 17.589449 19.293575 27.294168 8.455426 17.039751 19.969028
26.371006 19.390985 8.392681 11.056684 10.937248 -1.8718934 0.016251868 -0.03640212
19.857933 8.495085 13.035002 13.350156 22.667778 14.787443 8.949522 22.288084
15.348649 18.355536 17.0185 14.650071 -0.20140243 9.693682 3.4671698 21.272276
10.951379 10.219377 10.889552 19.032763 11.458227 -3.117465 6.975633 13.738045
0.075233854 12.916977 12.058384 14.672147 24.07842 8.826629 32.283802 12.580854
17.540752 12.77966 11.657192 14.591827 11.8353195 23.693068 20.640333 24.372608
00000000: c2ad 84c1 4ce0 f9c0 49df 36c1 2423 a8c1
00000010: 130c 6fc1 f2a0 bd3f d0b5 03c0 5ecc 583f
00000020: b7f4 abc0 ab0b 453c 5238 97c1 7ac8 183e
00000030: eb71 c6c0 cafe 6ac1 d5e8 f4c0 2485 1ac1
00000040: 6395 03c1 e616 3bc1 1489 543f 7ea1 53c1
00000050: 9c6c 4ac1 0fe1 69c0 ebae 4fc1 0281 4540
00000060: bb76 1cc1 f292 e9c0 6e41 89c1 3f2b cc3e
00000070: 4e82 7e3e 87c4 21c1 cac9 64c1 1071 22c1
00000080: af6f 2dc1 ca5d 273e 68ed 39c1 33e7 32bb
00000090: 1af9 58c1 0ce7 18c1 2106 8ac1 204b 8fc1
000000a0: fb73 5d3f 7b09 2f3e 826f 30c1 a9b5 82c1
000000b0: 5424 fac0 682d 8fc1 21c2 4ac0 fdb6 45bb
000000c0: d7f9 e0c0 5204 03c1 e5a2 07c0 b9d7 ce3f
000000d0: e96c 4bc1 07da 92c0 2558 62bf 7768 b23f
000000e0: 6ffc dac0 eed0 20c1 cffc 27c1 3ef4 eb3b
000000f0: 92e5 03c1 db41 8ec1 3e27 b53f 5dda 72c0
00000100: be91 b4c0 aaee 4ec1 d34e 5ec1 547c 16c1
00000110: bb8b 0fc1 943a 38c1 cca5 2c3f af08 aaba
00000120: 389e cac0 0fee 67c1 1ad3 84bf 18f4 2ac1
00000130: c86f a2c1 6cad 3ac1 4375 22c1 6e2c 87c1
00000140: 3bdd b8c0 f241 8cc1 a4ae 0bc1 72e3 ddc0
00000150: d8a4 28c1 99d8 5dc1 6ef8 653c dcc6 53b9
00000160: d056 64c1 b9b3 00c1 a31e 6fc1 a02a c9bf
00000170: 3da9 6fc1 796c 95c0 2f29 95c1 203d 23c1
00000180: 5b45 86c0 2005 7dc1 98f1 f5c0 0031 16c1
00000190: 56b9 463c 2c34 fac0 537d 2dc1 c37d 68c1
000001a0: cdde b0c0 8eff 79c1 8321 afc0 0986 31c1
000001b0: 43d0 90c1 7eeb 25bb be6b e5c0 b443 32c1
000001c0: 8c8a 60bd fd5d e9c0 4319 b4c0 4e5e 8fbf
000001d0: 9bf8 28c1 0a2b 14c1 bd07 88c1 cafc 86c1
000001e0: ee46 16c1 b2ba 1bc1 99b5 25c1 499c 0a40
000001f0: 430f 42c1 b664 93c1 9687 64c1 b6e7 30c1
00000200: d785 7f41 902a a741 a5c2 8841 9fe6 b141
00000210: c6b1 5c41 a846 b141 03db f040 490b 8f3d
00000220: fce0 0a41 d1e1 4e3e ecc0 ba41 72a4 9340
00000230: ec1a a341 555d 9640 ae64 d141 73bb 8241
00000240: 5f21 2541 9bcc 5e41 2e34 e241 42f7 5141
00000250: a9ea 9740 de17 b741 30f6 2841 a592 6d41
00000260: 718e 9d41 4a1b 8941 0178 b141 6b16 0840
00000270: d469 4d40 13b5 3a41 4e2a af41 b185 a841
00000280: 0d7d 3641 2923 6ac0 ce88 8f41 ceb1 27be
00000290: b837 9e41 3d8e 3c41 095b 9141 a24d 8f41
000002a0: 316c d13f f0ad 2940 2677 a541 ea5a 9641
000002b0: 9180 3c40 05d5 7b41 e953 9941 9cb2 4341
000002c0: 260e c741 8bca de41 05e9 4941 6185 c141
000002d0: fa11 dc41 c954 1641 118e 9e3f 4bf5 2d3f
000002e0: e8d9 7741 c4ee 6e41 9cfa 3b41 07b2 b640
000002f0: f9b4 9c41 7f49 a441 ff1a 3f3f 8a1d 5f3f
00000300: bdea 5041 d7f9 ae40 7f24 6d41 ed53 8f41
00000310: 4c7b b541 ee6b 0142 f642 eb40 8312 0441
00000320: 9706 1041 1270 9241 31b7 8c41 3e59 9a41
00000330: 755a da41 6d49 0741 6951 8841 92c0 9f41
00000340: d2f7 d241 bd20 9b41 6c48 0641 2de8 3041
00000350: f8fe 2e41 349a efbf a322 853c 641a 15bd
00000360: 0cdd 9e41 deeb 0741 5e8f 5041 3d9a 5541
00000370: 9c57 b541 5e99 6c41 3e31 0f41 ff4d b241
00000380: 1194 7541 23d8 9241 e325 8841 b166 6a41
00000390: 703c 4ebe 5219 1b41 1ce6 5d40 9f2d aa41
000003a0: d938 2f41 9182 2341 9b3b 2e41 1943 9841
000003b0: e654 3741 8c84 47c0 6338 df40 08cf 5b41
000003c0: 3514 9a3d f0ab 4e41 24ef 4041 1dc1 6a41
000003d0: 9ba0 c041 df39 0d41 9d22 0142 2e4b 4941
000003e0: 7653 8c41 7d79 4c41 dc83 3a41 2078 6941
000003f0: 785d 3d41 678b bd41 671f a541 1afb c241

exp_avg_sq f4 [64, 128]
2528.4905 4301.3916 678.48663 5771.412 3193.2366 3971.2664 1301.9564 350.22064
276.37872 376.80185 4899.076 313.0264 3126.4937 2535.3418 4502.5146 398.5284
2454.1975 3273.644 5404.4253 4231.131 4223.865 3536.0894 3507.4324 2778.4675
1982.0814 2149.767 4586.8564 366.2953 319.72684 1599.3613 2982.8015 3014.3247
1929.3522 3351.2756 3771.1616 106.25946 2601.1555 2635.784 5731.8076 4832.022
422.66754 315.04068 5299.5215 3188.6233 2711.9656 2826.0752 234.21445 857.7428
3829.5818 4847.2407 256.72083 4741.074 3654.0312 2807.715 3897.8066 484.43097
2553.2422 2638.3418 2833.8892 362.11716 2214.7888 4331.0186 649.3425 77.4473
1054.012 3290.6067 3794.5996 3365.825 3547.3845 6206.9565 1018.1596 144.35306
1217.6913 3495.3936 5013.074 2707.4275 7654.482 3123.4163 3289.2656 4660.0205
1953.259 4660.2847 1015.75867 825.4578 4712.997 3143.635 255.37909 0.005624468
4383.6216 2761.0002 3474.5212 1561.0172 3172.3682 2404.7358 4807.4517 2675.6223
4656.376 6664.43 2896.2815 2556.5752 331.78244 891.3183 2519.283 4221.6
1128.5504 3325.431 995.0476 3395.1982 4607.024 68.71866 1402.6407 3910.5317
42.18842 2973.3064 3059.0454 3343.2214 4253.686 3356.4302 5186.0586 5509.642
3645.1057 1298.6509 2453.5889 2773.7256 3441.144 6186.9365 5238.8066 4146.584
1546.8242 2254.7878 1010.7872 2669.9521 1835.5729 2089.2717 903.8172 29.533401
501.77078 26.25939 2344.4854 629.9617 1466.8995 1123.242 2864.542 724.44147
1405.325 1933.6268 3056.8196 1982.8859 2192.6218 2372.5513 1944.7117 1787.5996
1408.8976 1227.9911 1908.1732 429.787 368.27118 1010.70715 1478.9241 1573.0493
630.8188 1510.1306 2194.7532 9.849279 1858.1516 1211.1606 2279.3577 2237.6038
87.895905 661.3747 2148.39 1859.9696 1194.489 1459.2083 1023.751 921.0882
1469.1519 2614.1084 443.30768 3011.2864 1971.5966 1832.7921 2290.1409 43.07022
1300.1315 1475.8335 1852.6088 569.48553 1565.4161 1930.4159 78.066574 4.284589
743.0977 1191.4594 2045.3876 2095.3542 1977.762 3260.9702 733.11786 904.39484
797.0983 1679.1143 3056.7988 1439.979 3517.8958 1696.4165 2040.0106 2387.9932
1315.3821 2289.562 1197.1193 543.0673 2338.6675 1319.5455 23.120758 0.28230157
1920.0524 1728.0546 1781.4834 1312.7422 1420.732 1173.7709 1486.429 1192.7197
2470.754 3113.492 1553.0272 1275.8854 436.7829 1028.7643 912.65967 2233.861
788.1439 1410.7858 737.4819 1852.9299 2591.9421 637.19196 870.3308 1821.6823
2.9211228 1440.3186 1133.3054 1430.3386 2510.5366 1786.5804 2363.8823 2789.5437
1868.7671 964.3743 1370.9929 1519.9679 2114.0576 2744.602 3174.5613 2536.3462
00000000: d907 1e45 226b 8645 259f 2944 4c5b b445
00000010: c993 4745 4334 7845 9bbe a244 3e1c af43
00000020: 7a30 8a43 a366 bc43 9c18 9945 6183 9c43
00000030: e667 4345 7875 1e45 1eb4 8c45 a343 c743
00000040: 2963 1945 4e9a 4c45 67e3 a845 0c39 8445
00000050: ecfe 8345 6e01 5d45 eb36 5b45 7ba7 2d45
00000060: 9bc2 f744 465c 0645 da56 8f45 cc25 b743
00000070: 09dd 9f43 90eb c744 d36c 3a45 3265 3c45
00000080: 452b f144 6974 5145 96b2 6b45 d884 d442
00000090: 7d92 2245 8bbc 2445 761e b345 2d00 9745
000000a0: 7255 d343 3585 9d43 2c9c a545 f949 4745
000000b0: 737f 2945 34a1 3045 e636 6a43 8a6f 5644
000000c0: 4f59 6f45 ed79 9745 445c 8043 9828 9445
000000d0: 8060 6445 717b 2f45 e89c 7345 2a37 f243
000000e0: e093 1f45 78e5 2445 3a1e 3145 ff0e b543
000000f0: 9f6c 0a45 2658 8745 ec55 2244 05e5 9a42
00000100: 62c0 8344 b5a9 4d45 9829 6d45 335d 5245
00000110: 27b6 5d45 a7f7 c145 378a 7e44 625a 1043
00000120: 1f36 9844 4c76 5a45 98a8 9c45 d736 2945
00000130: db33 ef45 a936 4345 4094 4d45 2aa0 9145
00000140: 4a28 f444 47a2 9145 8ef0 7d44 4d5d 4e44
00000150: fa47 9345 297a 4445 0c61 7f43 754d b83b
00000160: f9fc 8845 0190 2c45 5728 5945 8d20 c344
00000170: e445 4645 c64b 1645 9d3b 9645 f539 2745
00000180: 0283 9145 7143 d045 8104 3545 34c9 1f45
00000190: 27e4 a543 5fd4 5e44 8774 1d45 cdec 8345
000001a0: 9d11 8d44 e5d6 4f45 0cc3 7844 2c33 5445
000001b0: 31f8 8f45 f46f 8942 8154 af44 8268 7445
000001c0: f1c0 2842 e7d4 3945 ba30 3f45 8bf3 5045
000001d0: 7ded 8445 e2c6 5145 7810 a245 232d ac45
000001e0: b1d1 6345 d454 a244 6c59 1945 9c5b 2d45
000001f0: 4e12 5745 7e57 c145 74b6 a345 ac94 8145
00000200: 605a c144 9bec 0c45 61b2 7c44 3cdf 2645
00000210: 5572 e544 5994 0245 4df4 6144 6844 ec41
00000220: a9e2 fa43 3b13 d241 c487 1245 8c7d 1d44
00000230: c95c b744 be67 8c44 ac08 3345 411c 3544
00000240: 66aa af44 0fb4 f144 1d0d 3f45 59dc f744
00000250: f309 0945 d248 1445 c616 f344 3073 df44
00000260: b91c b044 b77f 9944 8b85 ee44 bce4 d643
00000270: b622 b843 42ad 7c44 92dd b844 94a1 c444
00000280: 67b4 1d44 2ec4 bc44 0d2c 0945 a696 1d41
00000290: da44 e844 2465 9744 b975 0e45 a9d9 0b45
000002a0: b4ca af42 fb57 2544 3d46 0645 077f e844
000002b0: a64f 9544 aa66 b644 10f0 7f44 a545 6644
000002c0: dca4 b744 bc61 2345 62a7 dd43 9534 3c45
000002d0: 1773 f644 5919 e544 4122 0f45 e847 2c42
000002e0: 3584 a244 ac7a b844 7b93 e744 135f 0e44
000002f0: 51ad c344 4f4d f144 1622 9c42 5a1b 8940
00000300: 41c6 3944 b3ee 9444 67ac ff44 abf5 0245
00000310: 6238 f744 86cf 4b45 8b47 3744 4519 6244
00000320: 4b46 4744 a8e3 d144 c80c 3f45 54ff b344
00000330: 55de 5b45 540d d444 5700 ff44 e43f 1545
00000340: 3a6c a444 fe18 0f45 d1a3 9544 4fc4 0744
00000350: ae2a 1245 75f1 a444 50f7 b841 d589 903e
00000360: ad01 f044 bf01 d844 78af de44 c017 a444
00000370: 6d97 b144 abb8 9244 bacd b944 0817 9544
00000380: 106c 1a45 df97 4245 df20 c244 557c 9f44
00000390: 3664 da43 7598 8044 382a 6444 c79d 0b45
000003a0: 3609 4544 2559 b044 d75e 3844 c29d e744
000003b0: 13ff 2145 494c 1f44 2c95 5944 d5b5 e344
000003c0: adf3 3a40 320a b444 c6a9 8d44 d6ca b244
000003d0: 96e8 1c45 9352 df44 1ebe 1345 b358 2e45
000003e0: 8c98 e944 f517 7144 c65f ab44 f9fe bd44
000003f0: ec20 0445 a289 2b45 fb68 4645 8a85 1e45

exp_avg f4 [64]
-15.169445 22.584362 30.884235 10.242422 15.964785 19.9364 19.319427 9.785033
15.324365 -6.3526297 8.597879 -26.529848 15.473264 5.3827553 -19.635113 8.391164
14.2724495 15.752453 16.048704 11.655694 18.326769 9.602554 20.078392 20.25161
-6.899178 22.915718 -9.048553 16.226896 9.379584 14.023004 12.39255 -8.365439
26.449768 -14.10727 20.606632 -9.823623 13.358391 16.063862 24.341263 -41.36888
16.624422 -10.711764 13.232263 -22.45185 10.240807 -5.501031 18.002596 26.870853
14.328154 -12.118176 -16.701376 -3.7442303 24.008593 24.986225 23.612455 16.311249
-11.863333 -5.52945 -9.809339 14.238388 -8.096161 19.863832 11.347741 23.46625
00000000: 0cb6 72c1 c6ac b441 ea12 f741 f6e0 2341
00000010: c26f 7f41 bf7d 9f41 308e 9a41 7f8f 1c41
00000020: 9930 7541 be48 cbc0 ea90 0941 213d d4c1
00000030: 7d92 7741 883f ac40 b614 9dc1 3542 0641
00000040: f45b 6441 0c0a 7c41 bf63 8041 b97d 3a41
00000050: 399d 9241 10a4 1941 8ca0 a041 4c03 a241
00000060: 11c6 dcc0 6453 b741 e0c6 10c1 afd0 8141
00000070: c712 1641 395e 6041 e347 4641 d7d8 05c1
00000080: 2099 d341 61b7 61c1 62da a441 8f2d 1dc1
00000090: f8bb 5541 ca82 8041 e8ba c241 bc79 25c2
000000a0: d1fe 8441 6363 2bc1 59b7 5341 649d b3c1
000000b0: 58da 2341 7208 b0c0 5105 9041 82f7 d641
000000c0: 1e40 6541 0de4 41c1 6b9c 85c1 78a1 6fc0
000000d0: 9911 c041 cae3 c741 4fe6 bc41 707d 8241
000000e0: 36d0 3dc1 41f1 b0c0 0df3 1cc1 70d0 6341
000000f0: e089 01c1 21e9 9e41 5990 3541 e1ba bb41
